,model,quant_method,bin_method,precision,model_artifact,train_loss,train_acc,test_loss,test_acc
0,california_complex.pt,stochastic_rounding,uniform_range,16,"DenseNeuralNet(
  (net): Sequential(
    (0): Linear(in_features=6, out_features=50, bias=True)
    (1): ReLU()
    (2): Dropout(p=0.1, inplace=False)
    (3): Linear(in_features=50, out_features=100, bias=True)
    (4): ReLU()
    (5): Dropout(p=0.1, inplace=False)
    (6): Linear(in_features=100, out_features=100, bias=True)
    (7): ReLU()
    (8): Dropout(p=0.1, inplace=False)
    (9): Linear(in_features=100, out_features=50, bias=True)
    (10): ReLU()
    (11): Dropout(p=0.1, inplace=False)
    (12): Linear(in_features=50, out_features=1, bias=True)
  )
)",3861.1552734375,,3810.353515625,
1,california_complex.pt,stochastic_rounding,uniform_range,12,"DenseNeuralNet(
  (net): Sequential(
    (0): Linear(in_features=6, out_features=50, bias=True)
    (1): ReLU()
    (2): Dropout(p=0.1, inplace=False)
    (3): Linear(in_features=50, out_features=100, bias=True)
    (4): ReLU()
    (5): Dropout(p=0.1, inplace=False)
    (6): Linear(in_features=100, out_features=100, bias=True)
    (7): ReLU()
    (8): Dropout(p=0.1, inplace=False)
    (9): Linear(in_features=100, out_features=50, bias=True)
    (10): ReLU()
    (11): Dropout(p=0.1, inplace=False)
    (12): Linear(in_features=50, out_features=1, bias=True)
  )
)",3860.431396484375,,3812.00439453125,
2,california_complex.pt,stochastic_rounding,uniform_range,10,"DenseNeuralNet(
  (net): Sequential(
    (0): Linear(in_features=6, out_features=50, bias=True)
    (1): ReLU()
    (2): Dropout(p=0.1, inplace=False)
    (3): Linear(in_features=50, out_features=100, bias=True)
    (4): ReLU()
    (5): Dropout(p=0.1, inplace=False)
    (6): Linear(in_features=100, out_features=100, bias=True)
    (7): ReLU()
    (8): Dropout(p=0.1, inplace=False)
    (9): Linear(in_features=100, out_features=50, bias=True)
    (10): ReLU()
    (11): Dropout(p=0.1, inplace=False)
    (12): Linear(in_features=50, out_features=1, bias=True)
  )
)",3861.54052734375,,3810.761962890625,
3,california_complex.pt,stochastic_rounding,uniform_range,8,"DenseNeuralNet(
  (net): Sequential(
    (0): Linear(in_features=6, out_features=50, bias=True)
    (1): ReLU()
    (2): Dropout(p=0.1, inplace=False)
    (3): Linear(in_features=50, out_features=100, bias=True)
    (4): ReLU()
    (5): Dropout(p=0.1, inplace=False)
    (6): Linear(in_features=100, out_features=100, bias=True)
    (7): ReLU()
    (8): Dropout(p=0.1, inplace=False)
    (9): Linear(in_features=100, out_features=50, bias=True)
    (10): ReLU()
    (11): Dropout(p=0.1, inplace=False)
    (12): Linear(in_features=50, out_features=1, bias=True)
  )
)",3866.350830078125,,3820.2734375,
4,california_complex.pt,stochastic_rounding,uniform_range,6,"DenseNeuralNet(
  (net): Sequential(
    (0): Linear(in_features=6, out_features=50, bias=True)
    (1): ReLU()
    (2): Dropout(p=0.1, inplace=False)
    (3): Linear(in_features=50, out_features=100, bias=True)
    (4): ReLU()
    (5): Dropout(p=0.1, inplace=False)
    (6): Linear(in_features=100, out_features=100, bias=True)
    (7): ReLU()
    (8): Dropout(p=0.1, inplace=False)
    (9): Linear(in_features=100, out_features=50, bias=True)
    (10): ReLU()
    (11): Dropout(p=0.1, inplace=False)
    (12): Linear(in_features=50, out_features=1, bias=True)
  )
)",3932.110595703125,,3892.395263671875,
5,california_complex.pt,stochastic_rounding,uniform_range,4,"DenseNeuralNet(
  (net): Sequential(
    (0): Linear(in_features=6, out_features=50, bias=True)
    (1): ReLU()
    (2): Dropout(p=0.1, inplace=False)
    (3): Linear(in_features=50, out_features=100, bias=True)
    (4): ReLU()
    (5): Dropout(p=0.1, inplace=False)
    (6): Linear(in_features=100, out_features=100, bias=True)
    (7): ReLU()
    (8): Dropout(p=0.1, inplace=False)
    (9): Linear(in_features=100, out_features=50, bias=True)
    (10): ReLU()
    (11): Dropout(p=0.1, inplace=False)
    (12): Linear(in_features=50, out_features=1, bias=True)
  )
)",4777.31494140625,,4725.12060546875,
6,california_complex.pt,stochastic_rounding,uniform_range_IQR,16,"DenseNeuralNet(
  (net): Sequential(
    (0): Linear(in_features=6, out_features=50, bias=True)
    (1): ReLU()
    (2): Dropout(p=0.1, inplace=False)
    (3): Linear(in_features=50, out_features=100, bias=True)
    (4): ReLU()
    (5): Dropout(p=0.1, inplace=False)
    (6): Linear(in_features=100, out_features=100, bias=True)
    (7): ReLU()
    (8): Dropout(p=0.1, inplace=False)
    (9): Linear(in_features=100, out_features=50, bias=True)
    (10): ReLU()
    (11): Dropout(p=0.1, inplace=False)
    (12): Linear(in_features=50, out_features=1, bias=True)
  )
)",3991.093017578125,,3955.736328125,
7,california_complex.pt,stochastic_rounding,uniform_range_IQR,12,"DenseNeuralNet(
  (net): Sequential(
    (0): Linear(in_features=6, out_features=50, bias=True)
    (1): ReLU()
    (2): Dropout(p=0.1, inplace=False)
    (3): Linear(in_features=50, out_features=100, bias=True)
    (4): ReLU()
    (5): Dropout(p=0.1, inplace=False)
    (6): Linear(in_features=100, out_features=100, bias=True)
    (7): ReLU()
    (8): Dropout(p=0.1, inplace=False)
    (9): Linear(in_features=100, out_features=50, bias=True)
    (10): ReLU()
    (11): Dropout(p=0.1, inplace=False)
    (12): Linear(in_features=50, out_features=1, bias=True)
  )
)",3991.1904296875,,3947.200439453125,
8,california_complex.pt,stochastic_rounding,uniform_range_IQR,10,"DenseNeuralNet(
  (net): Sequential(
    (0): Linear(in_features=6, out_features=50, bias=True)
    (1): ReLU()
    (2): Dropout(p=0.1, inplace=False)
    (3): Linear(in_features=50, out_features=100, bias=True)
    (4): ReLU()
    (5): Dropout(p=0.1, inplace=False)
    (6): Linear(in_features=100, out_features=100, bias=True)
    (7): ReLU()
    (8): Dropout(p=0.1, inplace=False)
    (9): Linear(in_features=100, out_features=50, bias=True)
    (10): ReLU()
    (11): Dropout(p=0.1, inplace=False)
    (12): Linear(in_features=50, out_features=1, bias=True)
  )
)",3975.31640625,,3936.927490234375,
9,california_complex.pt,stochastic_rounding,uniform_range_IQR,8,"DenseNeuralNet(
  (net): Sequential(
    (0): Linear(in_features=6, out_features=50, bias=True)
    (1): ReLU()
    (2): Dropout(p=0.1, inplace=False)
    (3): Linear(in_features=50, out_features=100, bias=True)
    (4): ReLU()
    (5): Dropout(p=0.1, inplace=False)
    (6): Linear(in_features=100, out_features=100, bias=True)
    (7): ReLU()
    (8): Dropout(p=0.1, inplace=False)
    (9): Linear(in_features=100, out_features=50, bias=True)
    (10): ReLU()
    (11): Dropout(p=0.1, inplace=False)
    (12): Linear(in_features=50, out_features=1, bias=True)
  )
)",3970.5625,,3920.295654296875,
10,california_complex.pt,stochastic_rounding,uniform_range_IQR,6,"DenseNeuralNet(
  (net): Sequential(
    (0): Linear(in_features=6, out_features=50, bias=True)
    (1): ReLU()
    (2): Dropout(p=0.1, inplace=False)
    (3): Linear(in_features=50, out_features=100, bias=True)
    (4): ReLU()
    (5): Dropout(p=0.1, inplace=False)
    (6): Linear(in_features=100, out_features=100, bias=True)
    (7): ReLU()
    (8): Dropout(p=0.1, inplace=False)
    (9): Linear(in_features=100, out_features=50, bias=True)
    (10): ReLU()
    (11): Dropout(p=0.1, inplace=False)
    (12): Linear(in_features=50, out_features=1, bias=True)
  )
)",3937.645751953125,,3866.415771484375,
11,california_complex.pt,stochastic_rounding,uniform_range_IQR,4,"DenseNeuralNet(
  (net): Sequential(
    (0): Linear(in_features=6, out_features=50, bias=True)
    (1): ReLU()
    (2): Dropout(p=0.1, inplace=False)
    (3): Linear(in_features=50, out_features=100, bias=True)
    (4): ReLU()
    (5): Dropout(p=0.1, inplace=False)
    (6): Linear(in_features=100, out_features=100, bias=True)
    (7): ReLU()
    (8): Dropout(p=0.1, inplace=False)
    (9): Linear(in_features=100, out_features=50, bias=True)
    (10): ReLU()
    (11): Dropout(p=0.1, inplace=False)
    (12): Linear(in_features=50, out_features=1, bias=True)
  )
)",5708.9345703125,,5693.64697265625,
12,california_complex.pt,stochastic_rounding,prior_normal,16,"DenseNeuralNet(
  (net): Sequential(
    (0): Linear(in_features=6, out_features=50, bias=True)
    (1): ReLU()
    (2): Dropout(p=0.1, inplace=False)
    (3): Linear(in_features=50, out_features=100, bias=True)
    (4): ReLU()
    (5): Dropout(p=0.1, inplace=False)
    (6): Linear(in_features=100, out_features=100, bias=True)
    (7): ReLU()
    (8): Dropout(p=0.1, inplace=False)
    (9): Linear(in_features=100, out_features=50, bias=True)
    (10): ReLU()
    (11): Dropout(p=0.1, inplace=False)
    (12): Linear(in_features=50, out_features=1, bias=True)
  )
)",3860.292724609375,,3812.381103515625,
13,california_complex.pt,stochastic_rounding,prior_normal,12,"DenseNeuralNet(
  (net): Sequential(
    (0): Linear(in_features=6, out_features=50, bias=True)
    (1): ReLU()
    (2): Dropout(p=0.1, inplace=False)
    (3): Linear(in_features=50, out_features=100, bias=True)
    (4): ReLU()
    (5): Dropout(p=0.1, inplace=False)
    (6): Linear(in_features=100, out_features=100, bias=True)
    (7): ReLU()
    (8): Dropout(p=0.1, inplace=False)
    (9): Linear(in_features=100, out_features=50, bias=True)
    (10): ReLU()
    (11): Dropout(p=0.1, inplace=False)
    (12): Linear(in_features=50, out_features=1, bias=True)
  )
)",3859.1435546875,,3865.20849609375,
14,california_complex.pt,stochastic_rounding,prior_normal,10,"DenseNeuralNet(
  (net): Sequential(
    (0): Linear(in_features=6, out_features=50, bias=True)
    (1): ReLU()
    (2): Dropout(p=0.1, inplace=False)
    (3): Linear(in_features=50, out_features=100, bias=True)
    (4): ReLU()
    (5): Dropout(p=0.1, inplace=False)
    (6): Linear(in_features=100, out_features=100, bias=True)
    (7): ReLU()
    (8): Dropout(p=0.1, inplace=False)
    (9): Linear(in_features=100, out_features=50, bias=True)
    (10): ReLU()
    (11): Dropout(p=0.1, inplace=False)
    (12): Linear(in_features=50, out_features=1, bias=True)
  )
)",3875.541748046875,,3861.337646484375,
15,california_complex.pt,stochastic_rounding,prior_normal,8,"DenseNeuralNet(
  (net): Sequential(
    (0): Linear(in_features=6, out_features=50, bias=True)
    (1): ReLU()
    (2): Dropout(p=0.1, inplace=False)
    (3): Linear(in_features=50, out_features=100, bias=True)
    (4): ReLU()
    (5): Dropout(p=0.1, inplace=False)
    (6): Linear(in_features=100, out_features=100, bias=True)
    (7): ReLU()
    (8): Dropout(p=0.1, inplace=False)
    (9): Linear(in_features=100, out_features=50, bias=True)
    (10): ReLU()
    (11): Dropout(p=0.1, inplace=False)
    (12): Linear(in_features=50, out_features=1, bias=True)
  )
)",3897.171142578125,,3848.6279296875,
16,california_complex.pt,stochastic_rounding,prior_normal,6,"DenseNeuralNet(
  (net): Sequential(
    (0): Linear(in_features=6, out_features=50, bias=True)
    (1): ReLU()
    (2): Dropout(p=0.1, inplace=False)
    (3): Linear(in_features=50, out_features=100, bias=True)
    (4): ReLU()
    (5): Dropout(p=0.1, inplace=False)
    (6): Linear(in_features=100, out_features=100, bias=True)
    (7): ReLU()
    (8): Dropout(p=0.1, inplace=False)
    (9): Linear(in_features=100, out_features=50, bias=True)
    (10): ReLU()
    (11): Dropout(p=0.1, inplace=False)
    (12): Linear(in_features=50, out_features=1, bias=True)
  )
)",4397.05615234375,,4420.12646484375,
17,california_complex.pt,stochastic_rounding,prior_normal,4,"DenseNeuralNet(
  (net): Sequential(
    (0): Linear(in_features=6, out_features=50, bias=True)
    (1): ReLU()
    (2): Dropout(p=0.1, inplace=False)
    (3): Linear(in_features=50, out_features=100, bias=True)
    (4): ReLU()
    (5): Dropout(p=0.1, inplace=False)
    (6): Linear(in_features=100, out_features=100, bias=True)
    (7): ReLU()
    (8): Dropout(p=0.1, inplace=False)
    (9): Linear(in_features=100, out_features=50, bias=True)
    (10): ReLU()
    (11): Dropout(p=0.1, inplace=False)
    (12): Linear(in_features=50, out_features=1, bias=True)
  )
)",5906.001953125,,5865.47607421875,
18,california_complex.pt,stochastic_rounding,histogram,16,"DenseNeuralNet(
  (net): Sequential(
    (0): Linear(in_features=6, out_features=50, bias=True)
    (1): ReLU()
    (2): Dropout(p=0.1, inplace=False)
    (3): Linear(in_features=50, out_features=100, bias=True)
    (4): ReLU()
    (5): Dropout(p=0.1, inplace=False)
    (6): Linear(in_features=100, out_features=100, bias=True)
    (7): ReLU()
    (8): Dropout(p=0.1, inplace=False)
    (9): Linear(in_features=100, out_features=50, bias=True)
    (10): ReLU()
    (11): Dropout(p=0.1, inplace=False)
    (12): Linear(in_features=50, out_features=1, bias=True)
  )
)",3862.045166015625,,3811.256591796875,
19,california_complex.pt,stochastic_rounding,histogram,12,"DenseNeuralNet(
  (net): Sequential(
    (0): Linear(in_features=6, out_features=50, bias=True)
    (1): ReLU()
    (2): Dropout(p=0.1, inplace=False)
    (3): Linear(in_features=50, out_features=100, bias=True)
    (4): ReLU()
    (5): Dropout(p=0.1, inplace=False)
    (6): Linear(in_features=100, out_features=100, bias=True)
    (7): ReLU()
    (8): Dropout(p=0.1, inplace=False)
    (9): Linear(in_features=100, out_features=50, bias=True)
    (10): ReLU()
    (11): Dropout(p=0.1, inplace=False)
    (12): Linear(in_features=50, out_features=1, bias=True)
  )
)",3861.505859375,,3830.714599609375,
20,california_complex.pt,stochastic_rounding,histogram,10,"DenseNeuralNet(
  (net): Sequential(
    (0): Linear(in_features=6, out_features=50, bias=True)
    (1): ReLU()
    (2): Dropout(p=0.1, inplace=False)
    (3): Linear(in_features=50, out_features=100, bias=True)
    (4): ReLU()
    (5): Dropout(p=0.1, inplace=False)
    (6): Linear(in_features=100, out_features=100, bias=True)
    (7): ReLU()
    (8): Dropout(p=0.1, inplace=False)
    (9): Linear(in_features=100, out_features=50, bias=True)
    (10): ReLU()
    (11): Dropout(p=0.1, inplace=False)
    (12): Linear(in_features=50, out_features=1, bias=True)
  )
)",3853.90234375,,3798.6962890625,
21,california_complex.pt,stochastic_rounding,histogram,8,"DenseNeuralNet(
  (net): Sequential(
    (0): Linear(in_features=6, out_features=50, bias=True)
    (1): ReLU()
    (2): Dropout(p=0.1, inplace=False)
    (3): Linear(in_features=50, out_features=100, bias=True)
    (4): ReLU()
    (5): Dropout(p=0.1, inplace=False)
    (6): Linear(in_features=100, out_features=100, bias=True)
    (7): ReLU()
    (8): Dropout(p=0.1, inplace=False)
    (9): Linear(in_features=100, out_features=50, bias=True)
    (10): ReLU()
    (11): Dropout(p=0.1, inplace=False)
    (12): Linear(in_features=50, out_features=1, bias=True)
  )
)",3843.797607421875,,3808.511474609375,
22,california_complex.pt,stochastic_rounding,histogram,6,"DenseNeuralNet(
  (net): Sequential(
    (0): Linear(in_features=6, out_features=50, bias=True)
    (1): ReLU()
    (2): Dropout(p=0.1, inplace=False)
    (3): Linear(in_features=50, out_features=100, bias=True)
    (4): ReLU()
    (5): Dropout(p=0.1, inplace=False)
    (6): Linear(in_features=100, out_features=100, bias=True)
    (7): ReLU()
    (8): Dropout(p=0.1, inplace=False)
    (9): Linear(in_features=100, out_features=50, bias=True)
    (10): ReLU()
    (11): Dropout(p=0.1, inplace=False)
    (12): Linear(in_features=50, out_features=1, bias=True)
  )
)",3903.392822265625,,3859.7783203125,
23,california_complex.pt,stochastic_rounding,histogram,4,"DenseNeuralNet(
  (net): Sequential(
    (0): Linear(in_features=6, out_features=50, bias=True)
    (1): ReLU()
    (2): Dropout(p=0.1, inplace=False)
    (3): Linear(in_features=50, out_features=100, bias=True)
    (4): ReLU()
    (5): Dropout(p=0.1, inplace=False)
    (6): Linear(in_features=100, out_features=100, bias=True)
    (7): ReLU()
    (8): Dropout(p=0.1, inplace=False)
    (9): Linear(in_features=100, out_features=50, bias=True)
    (10): ReLU()
    (11): Dropout(p=0.1, inplace=False)
    (12): Linear(in_features=50, out_features=1, bias=True)
  )
)",5744.53173828125,,5764.1015625,
24,california_complex.pt,normal_rounding,uniform_range,16,"DenseNeuralNet(
  (net): Sequential(
    (0): Linear(in_features=6, out_features=50, bias=True)
    (1): ReLU()
    (2): Dropout(p=0.1, inplace=False)
    (3): Linear(in_features=50, out_features=100, bias=True)
    (4): ReLU()
    (5): Dropout(p=0.1, inplace=False)
    (6): Linear(in_features=100, out_features=100, bias=True)
    (7): ReLU()
    (8): Dropout(p=0.1, inplace=False)
    (9): Linear(in_features=100, out_features=50, bias=True)
    (10): ReLU()
    (11): Dropout(p=0.1, inplace=False)
    (12): Linear(in_features=50, out_features=1, bias=True)
  )
)",3859.475341796875,,3838.558349609375,
25,california_complex.pt,normal_rounding,uniform_range,12,"DenseNeuralNet(
  (net): Sequential(
    (0): Linear(in_features=6, out_features=50, bias=True)
    (1): ReLU()
    (2): Dropout(p=0.1, inplace=False)
    (3): Linear(in_features=50, out_features=100, bias=True)
    (4): ReLU()
    (5): Dropout(p=0.1, inplace=False)
    (6): Linear(in_features=100, out_features=100, bias=True)
    (7): ReLU()
    (8): Dropout(p=0.1, inplace=False)
    (9): Linear(in_features=100, out_features=50, bias=True)
    (10): ReLU()
    (11): Dropout(p=0.1, inplace=False)
    (12): Linear(in_features=50, out_features=1, bias=True)
  )
)",3859.765380859375,,3819.48388671875,
26,california_complex.pt,normal_rounding,uniform_range,10,"DenseNeuralNet(
  (net): Sequential(
    (0): Linear(in_features=6, out_features=50, bias=True)
    (1): ReLU()
    (2): Dropout(p=0.1, inplace=False)
    (3): Linear(in_features=50, out_features=100, bias=True)
    (4): ReLU()
    (5): Dropout(p=0.1, inplace=False)
    (6): Linear(in_features=100, out_features=100, bias=True)
    (7): ReLU()
    (8): Dropout(p=0.1, inplace=False)
    (9): Linear(in_features=100, out_features=50, bias=True)
    (10): ReLU()
    (11): Dropout(p=0.1, inplace=False)
    (12): Linear(in_features=50, out_features=1, bias=True)
  )
)",3859.74462890625,,3803.991455078125,
27,california_complex.pt,normal_rounding,uniform_range,8,"DenseNeuralNet(
  (net): Sequential(
    (0): Linear(in_features=6, out_features=50, bias=True)
    (1): ReLU()
    (2): Dropout(p=0.1, inplace=False)
    (3): Linear(in_features=50, out_features=100, bias=True)
    (4): ReLU()
    (5): Dropout(p=0.1, inplace=False)
    (6): Linear(in_features=100, out_features=100, bias=True)
    (7): ReLU()
    (8): Dropout(p=0.1, inplace=False)
    (9): Linear(in_features=100, out_features=50, bias=True)
    (10): ReLU()
    (11): Dropout(p=0.1, inplace=False)
    (12): Linear(in_features=50, out_features=1, bias=True)
  )
)",3854.10546875,,3798.92138671875,
28,california_complex.pt,normal_rounding,uniform_range,6,"DenseNeuralNet(
  (net): Sequential(
    (0): Linear(in_features=6, out_features=50, bias=True)
    (1): ReLU()
    (2): Dropout(p=0.1, inplace=False)
    (3): Linear(in_features=50, out_features=100, bias=True)
    (4): ReLU()
    (5): Dropout(p=0.1, inplace=False)
    (6): Linear(in_features=100, out_features=100, bias=True)
    (7): ReLU()
    (8): Dropout(p=0.1, inplace=False)
    (9): Linear(in_features=100, out_features=50, bias=True)
    (10): ReLU()
    (11): Dropout(p=0.1, inplace=False)
    (12): Linear(in_features=50, out_features=1, bias=True)
  )
)",3911.5341796875,,3848.02685546875,
29,california_complex.pt,normal_rounding,uniform_range,4,"DenseNeuralNet(
  (net): Sequential(
    (0): Linear(in_features=6, out_features=50, bias=True)
    (1): ReLU()
    (2): Dropout(p=0.1, inplace=False)
    (3): Linear(in_features=50, out_features=100, bias=True)
    (4): ReLU()
    (5): Dropout(p=0.1, inplace=False)
    (6): Linear(in_features=100, out_features=100, bias=True)
    (7): ReLU()
    (8): Dropout(p=0.1, inplace=False)
    (9): Linear(in_features=100, out_features=50, bias=True)
    (10): ReLU()
    (11): Dropout(p=0.1, inplace=False)
    (12): Linear(in_features=50, out_features=1, bias=True)
  )
)",7602.98876953125,,7553.14697265625,
30,california_complex.pt,normal_rounding,uniform_range_IQR,16,"DenseNeuralNet(
  (net): Sequential(
    (0): Linear(in_features=6, out_features=50, bias=True)
    (1): ReLU()
    (2): Dropout(p=0.1, inplace=False)
    (3): Linear(in_features=50, out_features=100, bias=True)
    (4): ReLU()
    (5): Dropout(p=0.1, inplace=False)
    (6): Linear(in_features=100, out_features=100, bias=True)
    (7): ReLU()
    (8): Dropout(p=0.1, inplace=False)
    (9): Linear(in_features=100, out_features=50, bias=True)
    (10): ReLU()
    (11): Dropout(p=0.1, inplace=False)
    (12): Linear(in_features=50, out_features=1, bias=True)
  )
)",3993.9716796875,,3924.91162109375,
31,california_complex.pt,normal_rounding,uniform_range_IQR,12,"DenseNeuralNet(
  (net): Sequential(
    (0): Linear(in_features=6, out_features=50, bias=True)
    (1): ReLU()
    (2): Dropout(p=0.1, inplace=False)
    (3): Linear(in_features=50, out_features=100, bias=True)
    (4): ReLU()
    (5): Dropout(p=0.1, inplace=False)
    (6): Linear(in_features=100, out_features=100, bias=True)
    (7): ReLU()
    (8): Dropout(p=0.1, inplace=False)
    (9): Linear(in_features=100, out_features=50, bias=True)
    (10): ReLU()
    (11): Dropout(p=0.1, inplace=False)
    (12): Linear(in_features=50, out_features=1, bias=True)
  )
)",3993.6591796875,,3929.562744140625,
32,california_complex.pt,normal_rounding,uniform_range_IQR,10,"DenseNeuralNet(
  (net): Sequential(
    (0): Linear(in_features=6, out_features=50, bias=True)
    (1): ReLU()
    (2): Dropout(p=0.1, inplace=False)
    (3): Linear(in_features=50, out_features=100, bias=True)
    (4): ReLU()
    (5): Dropout(p=0.1, inplace=False)
    (6): Linear(in_features=100, out_features=100, bias=True)
    (7): ReLU()
    (8): Dropout(p=0.1, inplace=False)
    (9): Linear(in_features=100, out_features=50, bias=True)
    (10): ReLU()
    (11): Dropout(p=0.1, inplace=False)
    (12): Linear(in_features=50, out_features=1, bias=True)
  )
)",3997.337646484375,,3946.769287109375,
33,california_complex.pt,normal_rounding,uniform_range_IQR,8,"DenseNeuralNet(
  (net): Sequential(
    (0): Linear(in_features=6, out_features=50, bias=True)
    (1): ReLU()
    (2): Dropout(p=0.1, inplace=False)
    (3): Linear(in_features=50, out_features=100, bias=True)
    (4): ReLU()
    (5): Dropout(p=0.1, inplace=False)
    (6): Linear(in_features=100, out_features=100, bias=True)
    (7): ReLU()
    (8): Dropout(p=0.1, inplace=False)
    (9): Linear(in_features=100, out_features=50, bias=True)
    (10): ReLU()
    (11): Dropout(p=0.1, inplace=False)
    (12): Linear(in_features=50, out_features=1, bias=True)
  )
)",3988.735595703125,,3919.69287109375,
34,california_complex.pt,normal_rounding,uniform_range_IQR,6,"DenseNeuralNet(
  (net): Sequential(
    (0): Linear(in_features=6, out_features=50, bias=True)
    (1): ReLU()
    (2): Dropout(p=0.1, inplace=False)
    (3): Linear(in_features=50, out_features=100, bias=True)
    (4): ReLU()
    (5): Dropout(p=0.1, inplace=False)
    (6): Linear(in_features=100, out_features=100, bias=True)
    (7): ReLU()
    (8): Dropout(p=0.1, inplace=False)
    (9): Linear(in_features=100, out_features=50, bias=True)
    (10): ReLU()
    (11): Dropout(p=0.1, inplace=False)
    (12): Linear(in_features=50, out_features=1, bias=True)
  )
)",3950.9443359375,,3892.171630859375,
35,california_complex.pt,normal_rounding,uniform_range_IQR,4,"DenseNeuralNet(
  (net): Sequential(
    (0): Linear(in_features=6, out_features=50, bias=True)
    (1): ReLU()
    (2): Dropout(p=0.1, inplace=False)
    (3): Linear(in_features=50, out_features=100, bias=True)
    (4): ReLU()
    (5): Dropout(p=0.1, inplace=False)
    (6): Linear(in_features=100, out_features=100, bias=True)
    (7): ReLU()
    (8): Dropout(p=0.1, inplace=False)
    (9): Linear(in_features=100, out_features=50, bias=True)
    (10): ReLU()
    (11): Dropout(p=0.1, inplace=False)
    (12): Linear(in_features=50, out_features=1, bias=True)
  )
)",4626.42919921875,,4613.53857421875,
36,california_complex.pt,normal_rounding,prior_normal,16,"DenseNeuralNet(
  (net): Sequential(
    (0): Linear(in_features=6, out_features=50, bias=True)
    (1): ReLU()
    (2): Dropout(p=0.1, inplace=False)
    (3): Linear(in_features=50, out_features=100, bias=True)
    (4): ReLU()
    (5): Dropout(p=0.1, inplace=False)
    (6): Linear(in_features=100, out_features=100, bias=True)
    (7): ReLU()
    (8): Dropout(p=0.1, inplace=False)
    (9): Linear(in_features=100, out_features=50, bias=True)
    (10): ReLU()
    (11): Dropout(p=0.1, inplace=False)
    (12): Linear(in_features=50, out_features=1, bias=True)
  )
)",3860.052734375,,3821.538818359375,
37,california_complex.pt,normal_rounding,prior_normal,12,"DenseNeuralNet(
  (net): Sequential(
    (0): Linear(in_features=6, out_features=50, bias=True)
    (1): ReLU()
    (2): Dropout(p=0.1, inplace=False)
    (3): Linear(in_features=50, out_features=100, bias=True)
    (4): ReLU()
    (5): Dropout(p=0.1, inplace=False)
    (6): Linear(in_features=100, out_features=100, bias=True)
    (7): ReLU()
    (8): Dropout(p=0.1, inplace=False)
    (9): Linear(in_features=100, out_features=50, bias=True)
    (10): ReLU()
    (11): Dropout(p=0.1, inplace=False)
    (12): Linear(in_features=50, out_features=1, bias=True)
  )
)",3865.24072265625,,3842.601318359375,
38,california_complex.pt,normal_rounding,prior_normal,10,"DenseNeuralNet(
  (net): Sequential(
    (0): Linear(in_features=6, out_features=50, bias=True)
    (1): ReLU()
    (2): Dropout(p=0.1, inplace=False)
    (3): Linear(in_features=50, out_features=100, bias=True)
    (4): ReLU()
    (5): Dropout(p=0.1, inplace=False)
    (6): Linear(in_features=100, out_features=100, bias=True)
    (7): ReLU()
    (8): Dropout(p=0.1, inplace=False)
    (9): Linear(in_features=100, out_features=50, bias=True)
    (10): ReLU()
    (11): Dropout(p=0.1, inplace=False)
    (12): Linear(in_features=50, out_features=1, bias=True)
  )
)",3871.57666015625,,3824.96533203125,
39,california_complex.pt,normal_rounding,prior_normal,8,"DenseNeuralNet(
  (net): Sequential(
    (0): Linear(in_features=6, out_features=50, bias=True)
    (1): ReLU()
    (2): Dropout(p=0.1, inplace=False)
    (3): Linear(in_features=50, out_features=100, bias=True)
    (4): ReLU()
    (5): Dropout(p=0.1, inplace=False)
    (6): Linear(in_features=100, out_features=100, bias=True)
    (7): ReLU()
    (8): Dropout(p=0.1, inplace=False)
    (9): Linear(in_features=100, out_features=50, bias=True)
    (10): ReLU()
    (11): Dropout(p=0.1, inplace=False)
    (12): Linear(in_features=50, out_features=1, bias=True)
  )
)",3883.849853515625,,3833.08349609375,
40,california_complex.pt,normal_rounding,prior_normal,6,"DenseNeuralNet(
  (net): Sequential(
    (0): Linear(in_features=6, out_features=50, bias=True)
    (1): ReLU()
    (2): Dropout(p=0.1, inplace=False)
    (3): Linear(in_features=50, out_features=100, bias=True)
    (4): ReLU()
    (5): Dropout(p=0.1, inplace=False)
    (6): Linear(in_features=100, out_features=100, bias=True)
    (7): ReLU()
    (8): Dropout(p=0.1, inplace=False)
    (9): Linear(in_features=100, out_features=50, bias=True)
    (10): ReLU()
    (11): Dropout(p=0.1, inplace=False)
    (12): Linear(in_features=50, out_features=1, bias=True)
  )
)",4127.34033203125,,4084.36181640625,
41,california_complex.pt,normal_rounding,prior_normal,4,"DenseNeuralNet(
  (net): Sequential(
    (0): Linear(in_features=6, out_features=50, bias=True)
    (1): ReLU()
    (2): Dropout(p=0.1, inplace=False)
    (3): Linear(in_features=50, out_features=100, bias=True)
    (4): ReLU()
    (5): Dropout(p=0.1, inplace=False)
    (6): Linear(in_features=100, out_features=100, bias=True)
    (7): ReLU()
    (8): Dropout(p=0.1, inplace=False)
    (9): Linear(in_features=100, out_features=50, bias=True)
    (10): ReLU()
    (11): Dropout(p=0.1, inplace=False)
    (12): Linear(in_features=50, out_features=1, bias=True)
  )
)",4108.29931640625,,4044.2685546875,
42,california_complex.pt,normal_rounding,histogram,16,"DenseNeuralNet(
  (net): Sequential(
    (0): Linear(in_features=6, out_features=50, bias=True)
    (1): ReLU()
    (2): Dropout(p=0.1, inplace=False)
    (3): Linear(in_features=50, out_features=100, bias=True)
    (4): ReLU()
    (5): Dropout(p=0.1, inplace=False)
    (6): Linear(in_features=100, out_features=100, bias=True)
    (7): ReLU()
    (8): Dropout(p=0.1, inplace=False)
    (9): Linear(in_features=100, out_features=50, bias=True)
    (10): ReLU()
    (11): Dropout(p=0.1, inplace=False)
    (12): Linear(in_features=50, out_features=1, bias=True)
  )
)",3860.198974609375,,3821.241943359375,
43,california_complex.pt,normal_rounding,histogram,12,"DenseNeuralNet(
  (net): Sequential(
    (0): Linear(in_features=6, out_features=50, bias=True)
    (1): ReLU()
    (2): Dropout(p=0.1, inplace=False)
    (3): Linear(in_features=50, out_features=100, bias=True)
    (4): ReLU()
    (5): Dropout(p=0.1, inplace=False)
    (6): Linear(in_features=100, out_features=100, bias=True)
    (7): ReLU()
    (8): Dropout(p=0.1, inplace=False)
    (9): Linear(in_features=100, out_features=50, bias=True)
    (10): ReLU()
    (11): Dropout(p=0.1, inplace=False)
    (12): Linear(in_features=50, out_features=1, bias=True)
  )
)",3857.437255859375,,3812.020751953125,
44,california_complex.pt,normal_rounding,histogram,10,"DenseNeuralNet(
  (net): Sequential(
    (0): Linear(in_features=6, out_features=50, bias=True)
    (1): ReLU()
    (2): Dropout(p=0.1, inplace=False)
    (3): Linear(in_features=50, out_features=100, bias=True)
    (4): ReLU()
    (5): Dropout(p=0.1, inplace=False)
    (6): Linear(in_features=100, out_features=100, bias=True)
    (7): ReLU()
    (8): Dropout(p=0.1, inplace=False)
    (9): Linear(in_features=100, out_features=50, bias=True)
    (10): ReLU()
    (11): Dropout(p=0.1, inplace=False)
    (12): Linear(in_features=50, out_features=1, bias=True)
  )
)",3863.62451171875,,3815.317138671875,
45,california_complex.pt,normal_rounding,histogram,8,"DenseNeuralNet(
  (net): Sequential(
    (0): Linear(in_features=6, out_features=50, bias=True)
    (1): ReLU()
    (2): Dropout(p=0.1, inplace=False)
    (3): Linear(in_features=50, out_features=100, bias=True)
    (4): ReLU()
    (5): Dropout(p=0.1, inplace=False)
    (6): Linear(in_features=100, out_features=100, bias=True)
    (7): ReLU()
    (8): Dropout(p=0.1, inplace=False)
    (9): Linear(in_features=100, out_features=50, bias=True)
    (10): ReLU()
    (11): Dropout(p=0.1, inplace=False)
    (12): Linear(in_features=50, out_features=1, bias=True)
  )
)",3884.8623046875,,3825.976806640625,
46,california_complex.pt,normal_rounding,histogram,6,"DenseNeuralNet(
  (net): Sequential(
    (0): Linear(in_features=6, out_features=50, bias=True)
    (1): ReLU()
    (2): Dropout(p=0.1, inplace=False)
    (3): Linear(in_features=50, out_features=100, bias=True)
    (4): ReLU()
    (5): Dropout(p=0.1, inplace=False)
    (6): Linear(in_features=100, out_features=100, bias=True)
    (7): ReLU()
    (8): Dropout(p=0.1, inplace=False)
    (9): Linear(in_features=100, out_features=50, bias=True)
    (10): ReLU()
    (11): Dropout(p=0.1, inplace=False)
    (12): Linear(in_features=50, out_features=1, bias=True)
  )
)",4025.88671875,,4043.978271484375,
47,california_complex.pt,normal_rounding,histogram,4,"DenseNeuralNet(
  (net): Sequential(
    (0): Linear(in_features=6, out_features=50, bias=True)
    (1): ReLU()
    (2): Dropout(p=0.1, inplace=False)
    (3): Linear(in_features=50, out_features=100, bias=True)
    (4): ReLU()
    (5): Dropout(p=0.1, inplace=False)
    (6): Linear(in_features=100, out_features=100, bias=True)
    (7): ReLU()
    (8): Dropout(p=0.1, inplace=False)
    (9): Linear(in_features=100, out_features=50, bias=True)
    (10): ReLU()
    (11): Dropout(p=0.1, inplace=False)
    (12): Linear(in_features=50, out_features=1, bias=True)
  )
)",4533.068359375,,4466.72412109375,
48,california_complex.pt,mid-rise,,16,"DenseNeuralNet(
  (net): Sequential(
    (0): Linear(in_features=6, out_features=50, bias=True)
    (1): ReLU()
    (2): Dropout(p=0.1, inplace=False)
    (3): Linear(in_features=50, out_features=100, bias=True)
    (4): ReLU()
    (5): Dropout(p=0.1, inplace=False)
    (6): Linear(in_features=100, out_features=100, bias=True)
    (7): ReLU()
    (8): Dropout(p=0.1, inplace=False)
    (9): Linear(in_features=100, out_features=50, bias=True)
    (10): ReLU()
    (11): Dropout(p=0.1, inplace=False)
    (12): Linear(in_features=50, out_features=1, bias=True)
  )
)",3860.774169921875,,3827.074462890625,
49,california_complex.pt,mid-rise,,12,"DenseNeuralNet(
  (net): Sequential(
    (0): Linear(in_features=6, out_features=50, bias=True)
    (1): ReLU()
    (2): Dropout(p=0.1, inplace=False)
    (3): Linear(in_features=50, out_features=100, bias=True)
    (4): ReLU()
    (5): Dropout(p=0.1, inplace=False)
    (6): Linear(in_features=100, out_features=100, bias=True)
    (7): ReLU()
    (8): Dropout(p=0.1, inplace=False)
    (9): Linear(in_features=100, out_features=50, bias=True)
    (10): ReLU()
    (11): Dropout(p=0.1, inplace=False)
    (12): Linear(in_features=50, out_features=1, bias=True)
  )
)",3860.3486328125,,3810.230224609375,
50,california_complex.pt,mid-rise,,10,"DenseNeuralNet(
  (net): Sequential(
    (0): Linear(in_features=6, out_features=50, bias=True)
    (1): ReLU()
    (2): Dropout(p=0.1, inplace=False)
    (3): Linear(in_features=50, out_features=100, bias=True)
    (4): ReLU()
    (5): Dropout(p=0.1, inplace=False)
    (6): Linear(in_features=100, out_features=100, bias=True)
    (7): ReLU()
    (8): Dropout(p=0.1, inplace=False)
    (9): Linear(in_features=100, out_features=50, bias=True)
    (10): ReLU()
    (11): Dropout(p=0.1, inplace=False)
    (12): Linear(in_features=50, out_features=1, bias=True)
  )
)",3857.855712890625,,3828.563232421875,
51,california_complex.pt,mid-rise,,8,"DenseNeuralNet(
  (net): Sequential(
    (0): Linear(in_features=6, out_features=50, bias=True)
    (1): ReLU()
    (2): Dropout(p=0.1, inplace=False)
    (3): Linear(in_features=50, out_features=100, bias=True)
    (4): ReLU()
    (5): Dropout(p=0.1, inplace=False)
    (6): Linear(in_features=100, out_features=100, bias=True)
    (7): ReLU()
    (8): Dropout(p=0.1, inplace=False)
    (9): Linear(in_features=100, out_features=50, bias=True)
    (10): ReLU()
    (11): Dropout(p=0.1, inplace=False)
    (12): Linear(in_features=50, out_features=1, bias=True)
  )
)",3869.469482421875,,3817.159912109375,
52,california_complex.pt,mid-rise,,6,"DenseNeuralNet(
  (net): Sequential(
    (0): Linear(in_features=6, out_features=50, bias=True)
    (1): ReLU()
    (2): Dropout(p=0.1, inplace=False)
    (3): Linear(in_features=50, out_features=100, bias=True)
    (4): ReLU()
    (5): Dropout(p=0.1, inplace=False)
    (6): Linear(in_features=100, out_features=100, bias=True)
    (7): ReLU()
    (8): Dropout(p=0.1, inplace=False)
    (9): Linear(in_features=100, out_features=50, bias=True)
    (10): ReLU()
    (11): Dropout(p=0.1, inplace=False)
    (12): Linear(in_features=50, out_features=1, bias=True)
  )
)",3947.448974609375,,3899.35009765625,
53,california_complex.pt,mid-rise,,4,"DenseNeuralNet(
  (net): Sequential(
    (0): Linear(in_features=6, out_features=50, bias=True)
    (1): ReLU()
    (2): Dropout(p=0.1, inplace=False)
    (3): Linear(in_features=50, out_features=100, bias=True)
    (4): ReLU()
    (5): Dropout(p=0.1, inplace=False)
    (6): Linear(in_features=100, out_features=100, bias=True)
    (7): ReLU()
    (8): Dropout(p=0.1, inplace=False)
    (9): Linear(in_features=100, out_features=50, bias=True)
    (10): ReLU()
    (11): Dropout(p=0.1, inplace=False)
    (12): Linear(in_features=50, out_features=1, bias=True)
  )
)",4756.80517578125,,4685.349609375,
54,california_complex.pt,mid-rise_iqr,,16,"DenseNeuralNet(
  (net): Sequential(
    (0): Linear(in_features=6, out_features=50, bias=True)
    (1): ReLU()
    (2): Dropout(p=0.1, inplace=False)
    (3): Linear(in_features=50, out_features=100, bias=True)
    (4): ReLU()
    (5): Dropout(p=0.1, inplace=False)
    (6): Linear(in_features=100, out_features=100, bias=True)
    (7): ReLU()
    (8): Dropout(p=0.1, inplace=False)
    (9): Linear(in_features=100, out_features=50, bias=True)
    (10): ReLU()
    (11): Dropout(p=0.1, inplace=False)
    (12): Linear(in_features=50, out_features=1, bias=True)
  )
)",3860.126220703125,,3810.458984375,
55,california_complex.pt,mid-rise_iqr,,12,"DenseNeuralNet(
  (net): Sequential(
    (0): Linear(in_features=6, out_features=50, bias=True)
    (1): ReLU()
    (2): Dropout(p=0.1, inplace=False)
    (3): Linear(in_features=50, out_features=100, bias=True)
    (4): ReLU()
    (5): Dropout(p=0.1, inplace=False)
    (6): Linear(in_features=100, out_features=100, bias=True)
    (7): ReLU()
    (8): Dropout(p=0.1, inplace=False)
    (9): Linear(in_features=100, out_features=50, bias=True)
    (10): ReLU()
    (11): Dropout(p=0.1, inplace=False)
    (12): Linear(in_features=50, out_features=1, bias=True)
  )
)",3860.87060546875,,3815.22412109375,
56,california_complex.pt,mid-rise_iqr,,10,"DenseNeuralNet(
  (net): Sequential(
    (0): Linear(in_features=6, out_features=50, bias=True)
    (1): ReLU()
    (2): Dropout(p=0.1, inplace=False)
    (3): Linear(in_features=50, out_features=100, bias=True)
    (4): ReLU()
    (5): Dropout(p=0.1, inplace=False)
    (6): Linear(in_features=100, out_features=100, bias=True)
    (7): ReLU()
    (8): Dropout(p=0.1, inplace=False)
    (9): Linear(in_features=100, out_features=50, bias=True)
    (10): ReLU()
    (11): Dropout(p=0.1, inplace=False)
    (12): Linear(in_features=50, out_features=1, bias=True)
  )
)",3865.7822265625,,3833.016845703125,
57,california_complex.pt,mid-rise_iqr,,8,"DenseNeuralNet(
  (net): Sequential(
    (0): Linear(in_features=6, out_features=50, bias=True)
    (1): ReLU()
    (2): Dropout(p=0.1, inplace=False)
    (3): Linear(in_features=50, out_features=100, bias=True)
    (4): ReLU()
    (5): Dropout(p=0.1, inplace=False)
    (6): Linear(in_features=100, out_features=100, bias=True)
    (7): ReLU()
    (8): Dropout(p=0.1, inplace=False)
    (9): Linear(in_features=100, out_features=50, bias=True)
    (10): ReLU()
    (11): Dropout(p=0.1, inplace=False)
    (12): Linear(in_features=50, out_features=1, bias=True)
  )
)",3850.773681640625,,3809.559326171875,
58,california_complex.pt,mid-rise_iqr,,6,"DenseNeuralNet(
  (net): Sequential(
    (0): Linear(in_features=6, out_features=50, bias=True)
    (1): ReLU()
    (2): Dropout(p=0.1, inplace=False)
    (3): Linear(in_features=50, out_features=100, bias=True)
    (4): ReLU()
    (5): Dropout(p=0.1, inplace=False)
    (6): Linear(in_features=100, out_features=100, bias=True)
    (7): ReLU()
    (8): Dropout(p=0.1, inplace=False)
    (9): Linear(in_features=100, out_features=50, bias=True)
    (10): ReLU()
    (11): Dropout(p=0.1, inplace=False)
    (12): Linear(in_features=50, out_features=1, bias=True)
  )
)",3928.038330078125,,3883.7451171875,
59,california_complex.pt,mid-rise_iqr,,4,"DenseNeuralNet(
  (net): Sequential(
    (0): Linear(in_features=6, out_features=50, bias=True)
    (1): ReLU()
    (2): Dropout(p=0.1, inplace=False)
    (3): Linear(in_features=50, out_features=100, bias=True)
    (4): ReLU()
    (5): Dropout(p=0.1, inplace=False)
    (6): Linear(in_features=100, out_features=100, bias=True)
    (7): ReLU()
    (8): Dropout(p=0.1, inplace=False)
    (9): Linear(in_features=100, out_features=50, bias=True)
    (10): ReLU()
    (11): Dropout(p=0.1, inplace=False)
    (12): Linear(in_features=50, out_features=1, bias=True)
  )
)",4529.271484375,,4430.95361328125,
