,model,method,precision,model_artifact,train_loss,train_acc,test_loss,test_acc
0,california_complex.pt,no rounding,32,"DenseNeuralNet(
  (net): Sequential(
    (0): Linear(in_features=6, out_features=50, bias=True)
    (1): ReLU()
    (2): Dropout(p=0.1, inplace=False)
    (3): Linear(in_features=50, out_features=100, bias=True)
    (4): ReLU()
    (5): Dropout(p=0.1, inplace=False)
    (6): Linear(in_features=100, out_features=100, bias=True)
    (7): ReLU()
    (8): Dropout(p=0.1, inplace=False)
    (9): Linear(in_features=100, out_features=50, bias=True)
    (10): ReLU()
    (11): Dropout(p=0.1, inplace=False)
    (12): Linear(in_features=50, out_features=1, bias=True)
  )
)",3859.899658203125,,3812.11767578125,
1,california_complex.pt,rounding,16,"DenseNeuralNet(
  (net): Sequential(
    (0): Linear(in_features=6, out_features=50, bias=True)
    (1): ReLU()
    (2): Dropout(p=0.1, inplace=False)
    (3): Linear(in_features=50, out_features=100, bias=True)
    (4): ReLU()
    (5): Dropout(p=0.1, inplace=False)
    (6): Linear(in_features=100, out_features=100, bias=True)
    (7): ReLU()
    (8): Dropout(p=0.1, inplace=False)
    (9): Linear(in_features=100, out_features=50, bias=True)
    (10): ReLU()
    (11): Dropout(p=0.1, inplace=False)
    (12): Linear(in_features=50, out_features=1, bias=True)
  )
)",3860.591064453125,,3831.275146484375,
2,california_complex.pt,rounding,12,"DenseNeuralNet(
  (net): Sequential(
    (0): Linear(in_features=6, out_features=50, bias=True)
    (1): ReLU()
    (2): Dropout(p=0.1, inplace=False)
    (3): Linear(in_features=50, out_features=100, bias=True)
    (4): ReLU()
    (5): Dropout(p=0.1, inplace=False)
    (6): Linear(in_features=100, out_features=100, bias=True)
    (7): ReLU()
    (8): Dropout(p=0.1, inplace=False)
    (9): Linear(in_features=100, out_features=50, bias=True)
    (10): ReLU()
    (11): Dropout(p=0.1, inplace=False)
    (12): Linear(in_features=50, out_features=1, bias=True)
  )
)",3862.42138671875,,3809.64453125,
3,california_complex.pt,rounding,8,"DenseNeuralNet(
  (net): Sequential(
    (0): Linear(in_features=6, out_features=50, bias=True)
    (1): ReLU()
    (2): Dropout(p=0.1, inplace=False)
    (3): Linear(in_features=50, out_features=100, bias=True)
    (4): ReLU()
    (5): Dropout(p=0.1, inplace=False)
    (6): Linear(in_features=100, out_features=100, bias=True)
    (7): ReLU()
    (8): Dropout(p=0.1, inplace=False)
    (9): Linear(in_features=100, out_features=50, bias=True)
    (10): ReLU()
    (11): Dropout(p=0.1, inplace=False)
    (12): Linear(in_features=50, out_features=1, bias=True)
  )
)",3861.29443359375,,3807.499267578125,
4,california_complex.pt,rounding,4,"DenseNeuralNet(
  (net): Sequential(
    (0): Linear(in_features=6, out_features=50, bias=True)
    (1): ReLU()
    (2): Dropout(p=0.1, inplace=False)
    (3): Linear(in_features=50, out_features=100, bias=True)
    (4): ReLU()
    (5): Dropout(p=0.1, inplace=False)
    (6): Linear(in_features=100, out_features=100, bias=True)
    (7): ReLU()
    (8): Dropout(p=0.1, inplace=False)
    (9): Linear(in_features=100, out_features=50, bias=True)
    (10): ReLU()
    (11): Dropout(p=0.1, inplace=False)
    (12): Linear(in_features=50, out_features=1, bias=True)
  )
)",3861.5009765625,,3808.995849609375,
5,california_complex.pt,rounding,2,"DenseNeuralNet(
  (net): Sequential(
    (0): Linear(in_features=6, out_features=50, bias=True)
    (1): ReLU()
    (2): Dropout(p=0.1, inplace=False)
    (3): Linear(in_features=50, out_features=100, bias=True)
    (4): ReLU()
    (5): Dropout(p=0.1, inplace=False)
    (6): Linear(in_features=100, out_features=100, bias=True)
    (7): ReLU()
    (8): Dropout(p=0.1, inplace=False)
    (9): Linear(in_features=100, out_features=50, bias=True)
    (10): ReLU()
    (11): Dropout(p=0.1, inplace=False)
    (12): Linear(in_features=50, out_features=1, bias=True)
  )
)",3841.489013671875,,3797.08642578125,
6,california_complex.pt,rounding,1,"DenseNeuralNet(
  (net): Sequential(
    (0): Linear(in_features=6, out_features=50, bias=True)
    (1): ReLU()
    (2): Dropout(p=0.1, inplace=False)
    (3): Linear(in_features=50, out_features=100, bias=True)
    (4): ReLU()
    (5): Dropout(p=0.1, inplace=False)
    (6): Linear(in_features=100, out_features=100, bias=True)
    (7): ReLU()
    (8): Dropout(p=0.1, inplace=False)
    (9): Linear(in_features=100, out_features=50, bias=True)
    (10): ReLU()
    (11): Dropout(p=0.1, inplace=False)
    (12): Linear(in_features=50, out_features=1, bias=True)
  )
)",4839.01708984375,,4826.27587890625,
7,california_complex.pt,rounding,0,"DenseNeuralNet(
  (net): Sequential(
    (0): Linear(in_features=6, out_features=50, bias=True)
    (1): ReLU()
    (2): Dropout(p=0.1, inplace=False)
    (3): Linear(in_features=50, out_features=100, bias=True)
    (4): ReLU()
    (5): Dropout(p=0.1, inplace=False)
    (6): Linear(in_features=100, out_features=100, bias=True)
    (7): ReLU()
    (8): Dropout(p=0.1, inplace=False)
    (9): Linear(in_features=100, out_features=50, bias=True)
    (10): ReLU()
    (11): Dropout(p=0.1, inplace=False)
    (12): Linear(in_features=50, out_features=1, bias=True)
  )
)",47789.83203125,,47294.6953125,
8,california_complex.pt,mid-rise,16,"DenseNeuralNet(
  (net): Sequential(
    (0): Linear(in_features=6, out_features=50, bias=True)
    (1): ReLU()
    (2): Dropout(p=0.1, inplace=False)
    (3): Linear(in_features=50, out_features=100, bias=True)
    (4): ReLU()
    (5): Dropout(p=0.1, inplace=False)
    (6): Linear(in_features=100, out_features=100, bias=True)
    (7): ReLU()
    (8): Dropout(p=0.1, inplace=False)
    (9): Linear(in_features=100, out_features=50, bias=True)
    (10): ReLU()
    (11): Dropout(p=0.1, inplace=False)
    (12): Linear(in_features=50, out_features=1, bias=True)
  )
)",3863.5634765625,,3826.165283203125,
9,california_complex.pt,mid-rise,12,"DenseNeuralNet(
  (net): Sequential(
    (0): Linear(in_features=6, out_features=50, bias=True)
    (1): ReLU()
    (2): Dropout(p=0.1, inplace=False)
    (3): Linear(in_features=50, out_features=100, bias=True)
    (4): ReLU()
    (5): Dropout(p=0.1, inplace=False)
    (6): Linear(in_features=100, out_features=100, bias=True)
    (7): ReLU()
    (8): Dropout(p=0.1, inplace=False)
    (9): Linear(in_features=100, out_features=50, bias=True)
    (10): ReLU()
    (11): Dropout(p=0.1, inplace=False)
    (12): Linear(in_features=50, out_features=1, bias=True)
  )
)",3864.181884765625,,3811.49169921875,
10,california_complex.pt,mid-rise,8,"DenseNeuralNet(
  (net): Sequential(
    (0): Linear(in_features=6, out_features=50, bias=True)
    (1): ReLU()
    (2): Dropout(p=0.1, inplace=False)
    (3): Linear(in_features=50, out_features=100, bias=True)
    (4): ReLU()
    (5): Dropout(p=0.1, inplace=False)
    (6): Linear(in_features=100, out_features=100, bias=True)
    (7): ReLU()
    (8): Dropout(p=0.1, inplace=False)
    (9): Linear(in_features=100, out_features=50, bias=True)
    (10): ReLU()
    (11): Dropout(p=0.1, inplace=False)
    (12): Linear(in_features=50, out_features=1, bias=True)
  )
)",3867.67431640625,,3815.967041015625,
11,california_complex.pt,mid-rise,4,"DenseNeuralNet(
  (net): Sequential(
    (0): Linear(in_features=6, out_features=50, bias=True)
    (1): ReLU()
    (2): Dropout(p=0.1, inplace=False)
    (3): Linear(in_features=50, out_features=100, bias=True)
    (4): ReLU()
    (5): Dropout(p=0.1, inplace=False)
    (6): Linear(in_features=100, out_features=100, bias=True)
    (7): ReLU()
    (8): Dropout(p=0.1, inplace=False)
    (9): Linear(in_features=100, out_features=50, bias=True)
    (10): ReLU()
    (11): Dropout(p=0.1, inplace=False)
    (12): Linear(in_features=50, out_features=1, bias=True)
  )
)",4758.4189453125,,4698.27197265625,
12,california_complex.pt,mid-rise,2,"DenseNeuralNet(
  (net): Sequential(
    (0): Linear(in_features=6, out_features=50, bias=True)
    (1): ReLU()
    (2): Dropout(p=0.1, inplace=False)
    (3): Linear(in_features=50, out_features=100, bias=True)
    (4): ReLU()
    (5): Dropout(p=0.1, inplace=False)
    (6): Linear(in_features=100, out_features=100, bias=True)
    (7): ReLU()
    (8): Dropout(p=0.1, inplace=False)
    (9): Linear(in_features=100, out_features=50, bias=True)
    (10): ReLU()
    (11): Dropout(p=0.1, inplace=False)
    (12): Linear(in_features=50, out_features=1, bias=True)
  )
)",83453.828125,,83639.8828125,
13,california_complex.pt,mid-rise,1,"DenseNeuralNet(
  (net): Sequential(
    (0): Linear(in_features=6, out_features=50, bias=True)
    (1): ReLU()
    (2): Dropout(p=0.1, inplace=False)
    (3): Linear(in_features=50, out_features=100, bias=True)
    (4): ReLU()
    (5): Dropout(p=0.1, inplace=False)
    (6): Linear(in_features=100, out_features=100, bias=True)
    (7): ReLU()
    (8): Dropout(p=0.1, inplace=False)
    (9): Linear(in_features=100, out_features=50, bias=True)
    (10): ReLU()
    (11): Dropout(p=0.1, inplace=False)
    (12): Linear(in_features=50, out_features=1, bias=True)
  )
)",3026437.5,,3007253.25,
14,california_complex.pt,mid-rise,0,"DenseNeuralNet(
  (net): Sequential(
    (0): Linear(in_features=6, out_features=50, bias=True)
    (1): ReLU()
    (2): Dropout(p=0.1, inplace=False)
    (3): Linear(in_features=50, out_features=100, bias=True)
    (4): ReLU()
    (5): Dropout(p=0.1, inplace=False)
    (6): Linear(in_features=100, out_features=100, bias=True)
    (7): ReLU()
    (8): Dropout(p=0.1, inplace=False)
    (9): Linear(in_features=100, out_features=50, bias=True)
    (10): ReLU()
    (11): Dropout(p=0.1, inplace=False)
    (12): Linear(in_features=50, out_features=1, bias=True)
  )
)",1811267584.0,,1806443776.0,
15,california_complex.pt,stochastic,16,"DenseNeuralNet(
  (net): Sequential(
    (0): Linear(in_features=6, out_features=50, bias=True)
    (1): ReLU()
    (2): Dropout(p=0.1, inplace=False)
    (3): Linear(in_features=50, out_features=100, bias=True)
    (4): ReLU()
    (5): Dropout(p=0.1, inplace=False)
    (6): Linear(in_features=100, out_features=100, bias=True)
    (7): ReLU()
    (8): Dropout(p=0.1, inplace=False)
    (9): Linear(in_features=100, out_features=50, bias=True)
    (10): ReLU()
    (11): Dropout(p=0.1, inplace=False)
    (12): Linear(in_features=50, out_features=1, bias=True)
  )
)",3860.725341796875,,3819.47314453125,
16,california_complex.pt,stochastic,12,"DenseNeuralNet(
  (net): Sequential(
    (0): Linear(in_features=6, out_features=50, bias=True)
    (1): ReLU()
    (2): Dropout(p=0.1, inplace=False)
    (3): Linear(in_features=50, out_features=100, bias=True)
    (4): ReLU()
    (5): Dropout(p=0.1, inplace=False)
    (6): Linear(in_features=100, out_features=100, bias=True)
    (7): ReLU()
    (8): Dropout(p=0.1, inplace=False)
    (9): Linear(in_features=100, out_features=50, bias=True)
    (10): ReLU()
    (11): Dropout(p=0.1, inplace=False)
    (12): Linear(in_features=50, out_features=1, bias=True)
  )
)",3860.9716796875,,3833.005615234375,
17,california_complex.pt,stochastic,8,"DenseNeuralNet(
  (net): Sequential(
    (0): Linear(in_features=6, out_features=50, bias=True)
    (1): ReLU()
    (2): Dropout(p=0.1, inplace=False)
    (3): Linear(in_features=50, out_features=100, bias=True)
    (4): ReLU()
    (5): Dropout(p=0.1, inplace=False)
    (6): Linear(in_features=100, out_features=100, bias=True)
    (7): ReLU()
    (8): Dropout(p=0.1, inplace=False)
    (9): Linear(in_features=100, out_features=50, bias=True)
    (10): ReLU()
    (11): Dropout(p=0.1, inplace=False)
    (12): Linear(in_features=50, out_features=1, bias=True)
  )
)",3861.33349609375,,3843.734130859375,
18,california_complex.pt,stochastic,4,"DenseNeuralNet(
  (net): Sequential(
    (0): Linear(in_features=6, out_features=50, bias=True)
    (1): ReLU()
    (2): Dropout(p=0.1, inplace=False)
    (3): Linear(in_features=50, out_features=100, bias=True)
    (4): ReLU()
    (5): Dropout(p=0.1, inplace=False)
    (6): Linear(in_features=100, out_features=100, bias=True)
    (7): ReLU()
    (8): Dropout(p=0.1, inplace=False)
    (9): Linear(in_features=100, out_features=50, bias=True)
    (10): ReLU()
    (11): Dropout(p=0.1, inplace=False)
    (12): Linear(in_features=50, out_features=1, bias=True)
  )
)",3859.96630859375,,3838.93017578125,
19,california_complex.pt,stochastic,2,"DenseNeuralNet(
  (net): Sequential(
    (0): Linear(in_features=6, out_features=50, bias=True)
    (1): ReLU()
    (2): Dropout(p=0.1, inplace=False)
    (3): Linear(in_features=50, out_features=100, bias=True)
    (4): ReLU()
    (5): Dropout(p=0.1, inplace=False)
    (6): Linear(in_features=100, out_features=100, bias=True)
    (7): ReLU()
    (8): Dropout(p=0.1, inplace=False)
    (9): Linear(in_features=100, out_features=50, bias=True)
    (10): ReLU()
    (11): Dropout(p=0.1, inplace=False)
    (12): Linear(in_features=50, out_features=1, bias=True)
  )
)",3857.0703125,,3804.822509765625,
20,california_complex.pt,stochastic,1,"DenseNeuralNet(
  (net): Sequential(
    (0): Linear(in_features=6, out_features=50, bias=True)
    (1): ReLU()
    (2): Dropout(p=0.1, inplace=False)
    (3): Linear(in_features=50, out_features=100, bias=True)
    (4): ReLU()
    (5): Dropout(p=0.1, inplace=False)
    (6): Linear(in_features=100, out_features=100, bias=True)
    (7): ReLU()
    (8): Dropout(p=0.1, inplace=False)
    (9): Linear(in_features=100, out_features=50, bias=True)
    (10): ReLU()
    (11): Dropout(p=0.1, inplace=False)
    (12): Linear(in_features=50, out_features=1, bias=True)
  )
)",12998.01171875,,13084.7275390625,
21,california_complex.pt,stochastic,0,"DenseNeuralNet(
  (net): Sequential(
    (0): Linear(in_features=6, out_features=50, bias=True)
    (1): ReLU()
    (2): Dropout(p=0.1, inplace=False)
    (3): Linear(in_features=50, out_features=100, bias=True)
    (4): ReLU()
    (5): Dropout(p=0.1, inplace=False)
    (6): Linear(in_features=100, out_features=100, bias=True)
    (7): ReLU()
    (8): Dropout(p=0.1, inplace=False)
    (9): Linear(in_features=100, out_features=50, bias=True)
    (10): ReLU()
    (11): Dropout(p=0.1, inplace=False)
    (12): Linear(in_features=50, out_features=1, bias=True)
  )
)",11946.0234375,,11793.6181640625,
