,model,method,precision,model_artifact,train_loss,train_acc,test_loss,test_acc
0,california_complex.pt,no rounding,32,"DenseNeuralNet(
  (net): Sequential(
    (0): Linear(in_features=6, out_features=50, bias=True)
    (1): ReLU()
    (2): Dropout(p=0.1, inplace=False)
    (3): Linear(in_features=50, out_features=100, bias=True)
    (4): ReLU()
    (5): Dropout(p=0.1, inplace=False)
    (6): Linear(in_features=100, out_features=100, bias=True)
    (7): ReLU()
    (8): Dropout(p=0.1, inplace=False)
    (9): Linear(in_features=100, out_features=50, bias=True)
    (10): ReLU()
    (11): Dropout(p=0.1, inplace=False)
    (12): Linear(in_features=50, out_features=1, bias=True)
  )
)",3860.02734375,,3807.374267578125,
1,california_complex.pt,rounding,16,"DenseNeuralNet(
  (net): Sequential(
    (0): Linear(in_features=6, out_features=50, bias=True)
    (1): ReLU()
    (2): Dropout(p=0.1, inplace=False)
    (3): Linear(in_features=50, out_features=100, bias=True)
    (4): ReLU()
    (5): Dropout(p=0.1, inplace=False)
    (6): Linear(in_features=100, out_features=100, bias=True)
    (7): ReLU()
    (8): Dropout(p=0.1, inplace=False)
    (9): Linear(in_features=100, out_features=50, bias=True)
    (10): ReLU()
    (11): Dropout(p=0.1, inplace=False)
    (12): Linear(in_features=50, out_features=1, bias=True)
  )
)",3860.55810546875,,3808.5849609375,
2,california_complex.pt,rounding,12,"DenseNeuralNet(
  (net): Sequential(
    (0): Linear(in_features=6, out_features=50, bias=True)
    (1): ReLU()
    (2): Dropout(p=0.1, inplace=False)
    (3): Linear(in_features=50, out_features=100, bias=True)
    (4): ReLU()
    (5): Dropout(p=0.1, inplace=False)
    (6): Linear(in_features=100, out_features=100, bias=True)
    (7): ReLU()
    (8): Dropout(p=0.1, inplace=False)
    (9): Linear(in_features=100, out_features=50, bias=True)
    (10): ReLU()
    (11): Dropout(p=0.1, inplace=False)
    (12): Linear(in_features=50, out_features=1, bias=True)
  )
)",3860.246826171875,,3818.91845703125,
3,california_complex.pt,rounding,8,"DenseNeuralNet(
  (net): Sequential(
    (0): Linear(in_features=6, out_features=50, bias=True)
    (1): ReLU()
    (2): Dropout(p=0.1, inplace=False)
    (3): Linear(in_features=50, out_features=100, bias=True)
    (4): ReLU()
    (5): Dropout(p=0.1, inplace=False)
    (6): Linear(in_features=100, out_features=100, bias=True)
    (7): ReLU()
    (8): Dropout(p=0.1, inplace=False)
    (9): Linear(in_features=100, out_features=50, bias=True)
    (10): ReLU()
    (11): Dropout(p=0.1, inplace=False)
    (12): Linear(in_features=50, out_features=1, bias=True)
  )
)",3862.047607421875,,3814.798828125,
4,california_complex.pt,rounding,4,"DenseNeuralNet(
  (net): Sequential(
    (0): Linear(in_features=6, out_features=50, bias=True)
    (1): ReLU()
    (2): Dropout(p=0.1, inplace=False)
    (3): Linear(in_features=50, out_features=100, bias=True)
    (4): ReLU()
    (5): Dropout(p=0.1, inplace=False)
    (6): Linear(in_features=100, out_features=100, bias=True)
    (7): ReLU()
    (8): Dropout(p=0.1, inplace=False)
    (9): Linear(in_features=100, out_features=50, bias=True)
    (10): ReLU()
    (11): Dropout(p=0.1, inplace=False)
    (12): Linear(in_features=50, out_features=1, bias=True)
  )
)",3860.21484375,,3815.54296875,
5,california_complex.pt,rounding,2,"DenseNeuralNet(
  (net): Sequential(
    (0): Linear(in_features=6, out_features=50, bias=True)
    (1): ReLU()
    (2): Dropout(p=0.1, inplace=False)
    (3): Linear(in_features=50, out_features=100, bias=True)
    (4): ReLU()
    (5): Dropout(p=0.1, inplace=False)
    (6): Linear(in_features=100, out_features=100, bias=True)
    (7): ReLU()
    (8): Dropout(p=0.1, inplace=False)
    (9): Linear(in_features=100, out_features=50, bias=True)
    (10): ReLU()
    (11): Dropout(p=0.1, inplace=False)
    (12): Linear(in_features=50, out_features=1, bias=True)
  )
)",3842.784912109375,,3793.09423828125,
6,california_complex.pt,rounding,1,"DenseNeuralNet(
  (net): Sequential(
    (0): Linear(in_features=6, out_features=50, bias=True)
    (1): ReLU()
    (2): Dropout(p=0.1, inplace=False)
    (3): Linear(in_features=50, out_features=100, bias=True)
    (4): ReLU()
    (5): Dropout(p=0.1, inplace=False)
    (6): Linear(in_features=100, out_features=100, bias=True)
    (7): ReLU()
    (8): Dropout(p=0.1, inplace=False)
    (9): Linear(in_features=100, out_features=50, bias=True)
    (10): ReLU()
    (11): Dropout(p=0.1, inplace=False)
    (12): Linear(in_features=50, out_features=1, bias=True)
  )
)",4839.15966796875,,4826.443359375,
7,california_complex.pt,rounding,0,"DenseNeuralNet(
  (net): Sequential(
    (0): Linear(in_features=6, out_features=50, bias=True)
    (1): ReLU()
    (2): Dropout(p=0.1, inplace=False)
    (3): Linear(in_features=50, out_features=100, bias=True)
    (4): ReLU()
    (5): Dropout(p=0.1, inplace=False)
    (6): Linear(in_features=100, out_features=100, bias=True)
    (7): ReLU()
    (8): Dropout(p=0.1, inplace=False)
    (9): Linear(in_features=100, out_features=50, bias=True)
    (10): ReLU()
    (11): Dropout(p=0.1, inplace=False)
    (12): Linear(in_features=50, out_features=1, bias=True)
  )
)",47802.15234375,,47338.7421875,
8,california_complex.pt,mid-rise,16,"DenseNeuralNet(
  (net): Sequential(
    (0): Linear(in_features=6, out_features=50, bias=True)
    (1): ReLU()
    (2): Dropout(p=0.1, inplace=False)
    (3): Linear(in_features=50, out_features=100, bias=True)
    (4): ReLU()
    (5): Dropout(p=0.1, inplace=False)
    (6): Linear(in_features=100, out_features=100, bias=True)
    (7): ReLU()
    (8): Dropout(p=0.1, inplace=False)
    (9): Linear(in_features=100, out_features=50, bias=True)
    (10): ReLU()
    (11): Dropout(p=0.1, inplace=False)
    (12): Linear(in_features=50, out_features=1, bias=True)
  )
)",7199431065600.0,,7176398569472.0,
9,california_complex.pt,mid-rise,12,"DenseNeuralNet(
  (net): Sequential(
    (0): Linear(in_features=6, out_features=50, bias=True)
    (1): ReLU()
    (2): Dropout(p=0.1, inplace=False)
    (3): Linear(in_features=50, out_features=100, bias=True)
    (4): ReLU()
    (5): Dropout(p=0.1, inplace=False)
    (6): Linear(in_features=100, out_features=100, bias=True)
    (7): ReLU()
    (8): Dropout(p=0.1, inplace=False)
    (9): Linear(in_features=100, out_features=50, bias=True)
    (10): ReLU()
    (11): Dropout(p=0.1, inplace=False)
    (12): Linear(in_features=50, out_features=1, bias=True)
  )
)",7183956705280.0,,7150753021952.0,
10,california_complex.pt,mid-rise,8,"DenseNeuralNet(
  (net): Sequential(
    (0): Linear(in_features=6, out_features=50, bias=True)
    (1): ReLU()
    (2): Dropout(p=0.1, inplace=False)
    (3): Linear(in_features=50, out_features=100, bias=True)
    (4): ReLU()
    (5): Dropout(p=0.1, inplace=False)
    (6): Linear(in_features=100, out_features=100, bias=True)
    (7): ReLU()
    (8): Dropout(p=0.1, inplace=False)
    (9): Linear(in_features=100, out_features=50, bias=True)
    (10): ReLU()
    (11): Dropout(p=0.1, inplace=False)
    (12): Linear(in_features=50, out_features=1, bias=True)
  )
)",6946545991680.0,,6918977880064.0,
11,california_complex.pt,mid-rise,4,"DenseNeuralNet(
  (net): Sequential(
    (0): Linear(in_features=6, out_features=50, bias=True)
    (1): ReLU()
    (2): Dropout(p=0.1, inplace=False)
    (3): Linear(in_features=50, out_features=100, bias=True)
    (4): ReLU()
    (5): Dropout(p=0.1, inplace=False)
    (6): Linear(in_features=100, out_features=100, bias=True)
    (7): ReLU()
    (8): Dropout(p=0.1, inplace=False)
    (9): Linear(in_features=100, out_features=50, bias=True)
    (10): ReLU()
    (11): Dropout(p=0.1, inplace=False)
    (12): Linear(in_features=50, out_features=1, bias=True)
  )
)",3944548925440.0,,3930947846144.0,
12,california_complex.pt,mid-rise,2,"DenseNeuralNet(
  (net): Sequential(
    (0): Linear(in_features=6, out_features=50, bias=True)
    (1): ReLU()
    (2): Dropout(p=0.1, inplace=False)
    (3): Linear(in_features=50, out_features=100, bias=True)
    (4): ReLU()
    (5): Dropout(p=0.1, inplace=False)
    (6): Linear(in_features=100, out_features=100, bias=True)
    (7): ReLU()
    (8): Dropout(p=0.1, inplace=False)
    (9): Linear(in_features=100, out_features=50, bias=True)
    (10): ReLU()
    (11): Dropout(p=0.1, inplace=False)
    (12): Linear(in_features=50, out_features=1, bias=True)
  )
)",450415198208.0,,449190363136.0,
13,california_complex.pt,mid-rise,1,"DenseNeuralNet(
  (net): Sequential(
    (0): Linear(in_features=6, out_features=50, bias=True)
    (1): ReLU()
    (2): Dropout(p=0.1, inplace=False)
    (3): Linear(in_features=50, out_features=100, bias=True)
    (4): ReLU()
    (5): Dropout(p=0.1, inplace=False)
    (6): Linear(in_features=100, out_features=100, bias=True)
    (7): ReLU()
    (8): Dropout(p=0.1, inplace=False)
    (9): Linear(in_features=100, out_features=50, bias=True)
    (10): ReLU()
    (11): Dropout(p=0.1, inplace=False)
    (12): Linear(in_features=50, out_features=1, bias=True)
  )
)",21526628352.0,,21477343232.0,
14,california_complex.pt,mid-rise,0,"DenseNeuralNet(
  (net): Sequential(
    (0): Linear(in_features=6, out_features=50, bias=True)
    (1): ReLU()
    (2): Dropout(p=0.1, inplace=False)
    (3): Linear(in_features=50, out_features=100, bias=True)
    (4): ReLU()
    (5): Dropout(p=0.1, inplace=False)
    (6): Linear(in_features=100, out_features=100, bias=True)
    (7): ReLU()
    (8): Dropout(p=0.1, inplace=False)
    (9): Linear(in_features=100, out_features=50, bias=True)
    (10): ReLU()
    (11): Dropout(p=0.1, inplace=False)
    (12): Linear(in_features=50, out_features=1, bias=True)
  )
)",1430331008.0,,1445565440.0,
15,california_complex.pt,stochastic,16,"DenseNeuralNet(
  (net): Sequential(
    (0): Linear(in_features=6, out_features=50, bias=True)
    (1): ReLU()
    (2): Dropout(p=0.1, inplace=False)
    (3): Linear(in_features=50, out_features=100, bias=True)
    (4): ReLU()
    (5): Dropout(p=0.1, inplace=False)
    (6): Linear(in_features=100, out_features=100, bias=True)
    (7): ReLU()
    (8): Dropout(p=0.1, inplace=False)
    (9): Linear(in_features=100, out_features=50, bias=True)
    (10): ReLU()
    (11): Dropout(p=0.1, inplace=False)
    (12): Linear(in_features=50, out_features=1, bias=True)
  )
)",3860.47412109375,,3858.134033203125,
16,california_complex.pt,stochastic,12,"DenseNeuralNet(
  (net): Sequential(
    (0): Linear(in_features=6, out_features=50, bias=True)
    (1): ReLU()
    (2): Dropout(p=0.1, inplace=False)
    (3): Linear(in_features=50, out_features=100, bias=True)
    (4): ReLU()
    (5): Dropout(p=0.1, inplace=False)
    (6): Linear(in_features=100, out_features=100, bias=True)
    (7): ReLU()
    (8): Dropout(p=0.1, inplace=False)
    (9): Linear(in_features=100, out_features=50, bias=True)
    (10): ReLU()
    (11): Dropout(p=0.1, inplace=False)
    (12): Linear(in_features=50, out_features=1, bias=True)
  )
)",3861.53564453125,,3814.28369140625,
17,california_complex.pt,stochastic,8,"DenseNeuralNet(
  (net): Sequential(
    (0): Linear(in_features=6, out_features=50, bias=True)
    (1): ReLU()
    (2): Dropout(p=0.1, inplace=False)
    (3): Linear(in_features=50, out_features=100, bias=True)
    (4): ReLU()
    (5): Dropout(p=0.1, inplace=False)
    (6): Linear(in_features=100, out_features=100, bias=True)
    (7): ReLU()
    (8): Dropout(p=0.1, inplace=False)
    (9): Linear(in_features=100, out_features=50, bias=True)
    (10): ReLU()
    (11): Dropout(p=0.1, inplace=False)
    (12): Linear(in_features=50, out_features=1, bias=True)
  )
)",3860.35302734375,,3810.13330078125,
18,california_complex.pt,stochastic,4,"DenseNeuralNet(
  (net): Sequential(
    (0): Linear(in_features=6, out_features=50, bias=True)
    (1): ReLU()
    (2): Dropout(p=0.1, inplace=False)
    (3): Linear(in_features=50, out_features=100, bias=True)
    (4): ReLU()
    (5): Dropout(p=0.1, inplace=False)
    (6): Linear(in_features=100, out_features=100, bias=True)
    (7): ReLU()
    (8): Dropout(p=0.1, inplace=False)
    (9): Linear(in_features=100, out_features=50, bias=True)
    (10): ReLU()
    (11): Dropout(p=0.1, inplace=False)
    (12): Linear(in_features=50, out_features=1, bias=True)
  )
)",3861.9326171875,,3811.572509765625,
19,california_complex.pt,stochastic,2,"DenseNeuralNet(
  (net): Sequential(
    (0): Linear(in_features=6, out_features=50, bias=True)
    (1): ReLU()
    (2): Dropout(p=0.1, inplace=False)
    (3): Linear(in_features=50, out_features=100, bias=True)
    (4): ReLU()
    (5): Dropout(p=0.1, inplace=False)
    (6): Linear(in_features=100, out_features=100, bias=True)
    (7): ReLU()
    (8): Dropout(p=0.1, inplace=False)
    (9): Linear(in_features=100, out_features=50, bias=True)
    (10): ReLU()
    (11): Dropout(p=0.1, inplace=False)
    (12): Linear(in_features=50, out_features=1, bias=True)
  )
)",3856.469482421875,,3809.834228515625,
20,california_complex.pt,stochastic,1,"DenseNeuralNet(
  (net): Sequential(
    (0): Linear(in_features=6, out_features=50, bias=True)
    (1): ReLU()
    (2): Dropout(p=0.1, inplace=False)
    (3): Linear(in_features=50, out_features=100, bias=True)
    (4): ReLU()
    (5): Dropout(p=0.1, inplace=False)
    (6): Linear(in_features=100, out_features=100, bias=True)
    (7): ReLU()
    (8): Dropout(p=0.1, inplace=False)
    (9): Linear(in_features=100, out_features=50, bias=True)
    (10): ReLU()
    (11): Dropout(p=0.1, inplace=False)
    (12): Linear(in_features=50, out_features=1, bias=True)
  )
)",13004.578125,,13126.5078125,
21,california_complex.pt,stochastic,0,"DenseNeuralNet(
  (net): Sequential(
    (0): Linear(in_features=6, out_features=50, bias=True)
    (1): ReLU()
    (2): Dropout(p=0.1, inplace=False)
    (3): Linear(in_features=50, out_features=100, bias=True)
    (4): ReLU()
    (5): Dropout(p=0.1, inplace=False)
    (6): Linear(in_features=100, out_features=100, bias=True)
    (7): ReLU()
    (8): Dropout(p=0.1, inplace=False)
    (9): Linear(in_features=100, out_features=50, bias=True)
    (10): ReLU()
    (11): Dropout(p=0.1, inplace=False)
    (12): Linear(in_features=50, out_features=1, bias=True)
  )
)",11944.3408203125,,11811.8720703125,
