,model,quant_method,bin_method,precision,model_artifact,train_loss,train_acc,test_loss,test_acc
0,mv_complex.pt,stochastic_rounding,uniform_range,16,"DenseNeuralNet(
  (net): Sequential(
    (0): Linear(in_features=10, out_features=50, bias=True)
    (1): ReLU()
    (2): Dropout(p=0.1, inplace=False)
    (3): Linear(in_features=50, out_features=100, bias=True)
    (4): ReLU()
    (5): Dropout(p=0.1, inplace=False)
    (6): Linear(in_features=100, out_features=100, bias=True)
    (7): ReLU()
    (8): Dropout(p=0.1, inplace=False)
    (9): Linear(in_features=100, out_features=50, bias=True)
    (10): ReLU()
    (11): Dropout(p=0.1, inplace=False)
    (12): Linear(in_features=50, out_features=1, bias=True)
  )
)",2.8457581996917725,,2.906562089920044,
1,mv_complex.pt,stochastic_rounding,uniform_range,12,"DenseNeuralNet(
  (net): Sequential(
    (0): Linear(in_features=10, out_features=50, bias=True)
    (1): ReLU()
    (2): Dropout(p=0.1, inplace=False)
    (3): Linear(in_features=50, out_features=100, bias=True)
    (4): ReLU()
    (5): Dropout(p=0.1, inplace=False)
    (6): Linear(in_features=100, out_features=100, bias=True)
    (7): ReLU()
    (8): Dropout(p=0.1, inplace=False)
    (9): Linear(in_features=100, out_features=50, bias=True)
    (10): ReLU()
    (11): Dropout(p=0.1, inplace=False)
    (12): Linear(in_features=50, out_features=1, bias=True)
  )
)",2.8769419193267822,,2.9379100799560547,
2,mv_complex.pt,stochastic_rounding,uniform_range,10,"DenseNeuralNet(
  (net): Sequential(
    (0): Linear(in_features=10, out_features=50, bias=True)
    (1): ReLU()
    (2): Dropout(p=0.1, inplace=False)
    (3): Linear(in_features=50, out_features=100, bias=True)
    (4): ReLU()
    (5): Dropout(p=0.1, inplace=False)
    (6): Linear(in_features=100, out_features=100, bias=True)
    (7): ReLU()
    (8): Dropout(p=0.1, inplace=False)
    (9): Linear(in_features=100, out_features=50, bias=True)
    (10): ReLU()
    (11): Dropout(p=0.1, inplace=False)
    (12): Linear(in_features=50, out_features=1, bias=True)
  )
)",2.8682610988616943,,2.9283690452575684,
3,mv_complex.pt,stochastic_rounding,uniform_range,8,"DenseNeuralNet(
  (net): Sequential(
    (0): Linear(in_features=10, out_features=50, bias=True)
    (1): ReLU()
    (2): Dropout(p=0.1, inplace=False)
    (3): Linear(in_features=50, out_features=100, bias=True)
    (4): ReLU()
    (5): Dropout(p=0.1, inplace=False)
    (6): Linear(in_features=100, out_features=100, bias=True)
    (7): ReLU()
    (8): Dropout(p=0.1, inplace=False)
    (9): Linear(in_features=100, out_features=50, bias=True)
    (10): ReLU()
    (11): Dropout(p=0.1, inplace=False)
    (12): Linear(in_features=50, out_features=1, bias=True)
  )
)",2.7428269386291504,,2.791543960571289,
4,mv_complex.pt,stochastic_rounding,uniform_range,6,"DenseNeuralNet(
  (net): Sequential(
    (0): Linear(in_features=10, out_features=50, bias=True)
    (1): ReLU()
    (2): Dropout(p=0.1, inplace=False)
    (3): Linear(in_features=50, out_features=100, bias=True)
    (4): ReLU()
    (5): Dropout(p=0.1, inplace=False)
    (6): Linear(in_features=100, out_features=100, bias=True)
    (7): ReLU()
    (8): Dropout(p=0.1, inplace=False)
    (9): Linear(in_features=100, out_features=50, bias=True)
    (10): ReLU()
    (11): Dropout(p=0.1, inplace=False)
    (12): Linear(in_features=50, out_features=1, bias=True)
  )
)",2.1983249187469482,,2.2310709953308105,
5,mv_complex.pt,stochastic_rounding,uniform_range,4,"DenseNeuralNet(
  (net): Sequential(
    (0): Linear(in_features=10, out_features=50, bias=True)
    (1): ReLU()
    (2): Dropout(p=0.1, inplace=False)
    (3): Linear(in_features=50, out_features=100, bias=True)
    (4): ReLU()
    (5): Dropout(p=0.1, inplace=False)
    (6): Linear(in_features=100, out_features=100, bias=True)
    (7): ReLU()
    (8): Dropout(p=0.1, inplace=False)
    (9): Linear(in_features=100, out_features=50, bias=True)
    (10): ReLU()
    (11): Dropout(p=0.1, inplace=False)
    (12): Linear(in_features=50, out_features=1, bias=True)
  )
)",5.943452835083008,,6.036466598510742,
6,mv_complex.pt,stochastic_rounding,uniform_range_IQR,16,"DenseNeuralNet(
  (net): Sequential(
    (0): Linear(in_features=10, out_features=50, bias=True)
    (1): ReLU()
    (2): Dropout(p=0.1, inplace=False)
    (3): Linear(in_features=50, out_features=100, bias=True)
    (4): ReLU()
    (5): Dropout(p=0.1, inplace=False)
    (6): Linear(in_features=100, out_features=100, bias=True)
    (7): ReLU()
    (8): Dropout(p=0.1, inplace=False)
    (9): Linear(in_features=100, out_features=50, bias=True)
    (10): ReLU()
    (11): Dropout(p=0.1, inplace=False)
    (12): Linear(in_features=50, out_features=1, bias=True)
  )
)",59.05305099487305,,59.87163162231445,
7,mv_complex.pt,stochastic_rounding,uniform_range_IQR,12,"DenseNeuralNet(
  (net): Sequential(
    (0): Linear(in_features=10, out_features=50, bias=True)
    (1): ReLU()
    (2): Dropout(p=0.1, inplace=False)
    (3): Linear(in_features=50, out_features=100, bias=True)
    (4): ReLU()
    (5): Dropout(p=0.1, inplace=False)
    (6): Linear(in_features=100, out_features=100, bias=True)
    (7): ReLU()
    (8): Dropout(p=0.1, inplace=False)
    (9): Linear(in_features=100, out_features=50, bias=True)
    (10): ReLU()
    (11): Dropout(p=0.1, inplace=False)
    (12): Linear(in_features=50, out_features=1, bias=True)
  )
)",59.05924606323242,,59.90619659423828,
8,mv_complex.pt,stochastic_rounding,uniform_range_IQR,10,"DenseNeuralNet(
  (net): Sequential(
    (0): Linear(in_features=10, out_features=50, bias=True)
    (1): ReLU()
    (2): Dropout(p=0.1, inplace=False)
    (3): Linear(in_features=50, out_features=100, bias=True)
    (4): ReLU()
    (5): Dropout(p=0.1, inplace=False)
    (6): Linear(in_features=100, out_features=100, bias=True)
    (7): ReLU()
    (8): Dropout(p=0.1, inplace=False)
    (9): Linear(in_features=100, out_features=50, bias=True)
    (10): ReLU()
    (11): Dropout(p=0.1, inplace=False)
    (12): Linear(in_features=50, out_features=1, bias=True)
  )
)",59.07247543334961,,59.9322509765625,
9,mv_complex.pt,stochastic_rounding,uniform_range_IQR,8,"DenseNeuralNet(
  (net): Sequential(
    (0): Linear(in_features=10, out_features=50, bias=True)
    (1): ReLU()
    (2): Dropout(p=0.1, inplace=False)
    (3): Linear(in_features=50, out_features=100, bias=True)
    (4): ReLU()
    (5): Dropout(p=0.1, inplace=False)
    (6): Linear(in_features=100, out_features=100, bias=True)
    (7): ReLU()
    (8): Dropout(p=0.1, inplace=False)
    (9): Linear(in_features=100, out_features=50, bias=True)
    (10): ReLU()
    (11): Dropout(p=0.1, inplace=False)
    (12): Linear(in_features=50, out_features=1, bias=True)
  )
)",59.00234603881836,,59.84425354003906,
10,mv_complex.pt,stochastic_rounding,uniform_range_IQR,6,"DenseNeuralNet(
  (net): Sequential(
    (0): Linear(in_features=10, out_features=50, bias=True)
    (1): ReLU()
    (2): Dropout(p=0.1, inplace=False)
    (3): Linear(in_features=50, out_features=100, bias=True)
    (4): ReLU()
    (5): Dropout(p=0.1, inplace=False)
    (6): Linear(in_features=100, out_features=100, bias=True)
    (7): ReLU()
    (8): Dropout(p=0.1, inplace=False)
    (9): Linear(in_features=100, out_features=50, bias=True)
    (10): ReLU()
    (11): Dropout(p=0.1, inplace=False)
    (12): Linear(in_features=50, out_features=1, bias=True)
  )
)",64.53227233886719,,65.46662139892578,
11,mv_complex.pt,stochastic_rounding,uniform_range_IQR,4,"DenseNeuralNet(
  (net): Sequential(
    (0): Linear(in_features=10, out_features=50, bias=True)
    (1): ReLU()
    (2): Dropout(p=0.1, inplace=False)
    (3): Linear(in_features=50, out_features=100, bias=True)
    (4): ReLU()
    (5): Dropout(p=0.1, inplace=False)
    (6): Linear(in_features=100, out_features=100, bias=True)
    (7): ReLU()
    (8): Dropout(p=0.1, inplace=False)
    (9): Linear(in_features=100, out_features=50, bias=True)
    (10): ReLU()
    (11): Dropout(p=0.1, inplace=False)
    (12): Linear(in_features=50, out_features=1, bias=True)
  )
)",74.82874298095703,,75.90097045898438,
12,mv_complex.pt,stochastic_rounding,prior_normal,16,"DenseNeuralNet(
  (net): Sequential(
    (0): Linear(in_features=10, out_features=50, bias=True)
    (1): ReLU()
    (2): Dropout(p=0.1, inplace=False)
    (3): Linear(in_features=50, out_features=100, bias=True)
    (4): ReLU()
    (5): Dropout(p=0.1, inplace=False)
    (6): Linear(in_features=100, out_features=100, bias=True)
    (7): ReLU()
    (8): Dropout(p=0.1, inplace=False)
    (9): Linear(in_features=100, out_features=50, bias=True)
    (10): ReLU()
    (11): Dropout(p=0.1, inplace=False)
    (12): Linear(in_features=50, out_features=1, bias=True)
  )
)",1.1852658987045288,,1.2158122062683105,
13,mv_complex.pt,stochastic_rounding,prior_normal,12,"DenseNeuralNet(
  (net): Sequential(
    (0): Linear(in_features=10, out_features=50, bias=True)
    (1): ReLU()
    (2): Dropout(p=0.1, inplace=False)
    (3): Linear(in_features=50, out_features=100, bias=True)
    (4): ReLU()
    (5): Dropout(p=0.1, inplace=False)
    (6): Linear(in_features=100, out_features=100, bias=True)
    (7): ReLU()
    (8): Dropout(p=0.1, inplace=False)
    (9): Linear(in_features=100, out_features=50, bias=True)
    (10): ReLU()
    (11): Dropout(p=0.1, inplace=False)
    (12): Linear(in_features=50, out_features=1, bias=True)
  )
)",1.1324766874313354,,1.1216188669204712,
14,mv_complex.pt,stochastic_rounding,prior_normal,10,"DenseNeuralNet(
  (net): Sequential(
    (0): Linear(in_features=10, out_features=50, bias=True)
    (1): ReLU()
    (2): Dropout(p=0.1, inplace=False)
    (3): Linear(in_features=50, out_features=100, bias=True)
    (4): ReLU()
    (5): Dropout(p=0.1, inplace=False)
    (6): Linear(in_features=100, out_features=100, bias=True)
    (7): ReLU()
    (8): Dropout(p=0.1, inplace=False)
    (9): Linear(in_features=100, out_features=50, bias=True)
    (10): ReLU()
    (11): Dropout(p=0.1, inplace=False)
    (12): Linear(in_features=50, out_features=1, bias=True)
  )
)",1.5547099113464355,,1.549068570137024,
15,mv_complex.pt,stochastic_rounding,prior_normal,8,"DenseNeuralNet(
  (net): Sequential(
    (0): Linear(in_features=10, out_features=50, bias=True)
    (1): ReLU()
    (2): Dropout(p=0.1, inplace=False)
    (3): Linear(in_features=50, out_features=100, bias=True)
    (4): ReLU()
    (5): Dropout(p=0.1, inplace=False)
    (6): Linear(in_features=100, out_features=100, bias=True)
    (7): ReLU()
    (8): Dropout(p=0.1, inplace=False)
    (9): Linear(in_features=100, out_features=50, bias=True)
    (10): ReLU()
    (11): Dropout(p=0.1, inplace=False)
    (12): Linear(in_features=50, out_features=1, bias=True)
  )
)",0.9475045204162598,,0.9410260915756226,
16,mv_complex.pt,stochastic_rounding,prior_normal,6,"DenseNeuralNet(
  (net): Sequential(
    (0): Linear(in_features=10, out_features=50, bias=True)
    (1): ReLU()
    (2): Dropout(p=0.1, inplace=False)
    (3): Linear(in_features=50, out_features=100, bias=True)
    (4): ReLU()
    (5): Dropout(p=0.1, inplace=False)
    (6): Linear(in_features=100, out_features=100, bias=True)
    (7): ReLU()
    (8): Dropout(p=0.1, inplace=False)
    (9): Linear(in_features=100, out_features=50, bias=True)
    (10): ReLU()
    (11): Dropout(p=0.1, inplace=False)
    (12): Linear(in_features=50, out_features=1, bias=True)
  )
)",11.52976131439209,,11.541359901428223,
17,mv_complex.pt,stochastic_rounding,prior_normal,4,"DenseNeuralNet(
  (net): Sequential(
    (0): Linear(in_features=10, out_features=50, bias=True)
    (1): ReLU()
    (2): Dropout(p=0.1, inplace=False)
    (3): Linear(in_features=50, out_features=100, bias=True)
    (4): ReLU()
    (5): Dropout(p=0.1, inplace=False)
    (6): Linear(in_features=100, out_features=100, bias=True)
    (7): ReLU()
    (8): Dropout(p=0.1, inplace=False)
    (9): Linear(in_features=100, out_features=50, bias=True)
    (10): ReLU()
    (11): Dropout(p=0.1, inplace=False)
    (12): Linear(in_features=50, out_features=1, bias=True)
  )
)",35.42184066772461,,35.43557357788086,
18,mv_complex.pt,stochastic_rounding,histogram,16,"DenseNeuralNet(
  (net): Sequential(
    (0): Linear(in_features=10, out_features=50, bias=True)
    (1): ReLU()
    (2): Dropout(p=0.1, inplace=False)
    (3): Linear(in_features=50, out_features=100, bias=True)
    (4): ReLU()
    (5): Dropout(p=0.1, inplace=False)
    (6): Linear(in_features=100, out_features=100, bias=True)
    (7): ReLU()
    (8): Dropout(p=0.1, inplace=False)
    (9): Linear(in_features=100, out_features=50, bias=True)
    (10): ReLU()
    (11): Dropout(p=0.1, inplace=False)
    (12): Linear(in_features=50, out_features=1, bias=True)
  )
)",2.847872734069824,,2.90832257270813,
19,mv_complex.pt,stochastic_rounding,histogram,12,"DenseNeuralNet(
  (net): Sequential(
    (0): Linear(in_features=10, out_features=50, bias=True)
    (1): ReLU()
    (2): Dropout(p=0.1, inplace=False)
    (3): Linear(in_features=50, out_features=100, bias=True)
    (4): ReLU()
    (5): Dropout(p=0.1, inplace=False)
    (6): Linear(in_features=100, out_features=100, bias=True)
    (7): ReLU()
    (8): Dropout(p=0.1, inplace=False)
    (9): Linear(in_features=100, out_features=50, bias=True)
    (10): ReLU()
    (11): Dropout(p=0.1, inplace=False)
    (12): Linear(in_features=50, out_features=1, bias=True)
  )
)",2.8880832195281982,,2.9493582248687744,
20,mv_complex.pt,stochastic_rounding,histogram,10,"DenseNeuralNet(
  (net): Sequential(
    (0): Linear(in_features=10, out_features=50, bias=True)
    (1): ReLU()
    (2): Dropout(p=0.1, inplace=False)
    (3): Linear(in_features=50, out_features=100, bias=True)
    (4): ReLU()
    (5): Dropout(p=0.1, inplace=False)
    (6): Linear(in_features=100, out_features=100, bias=True)
    (7): ReLU()
    (8): Dropout(p=0.1, inplace=False)
    (9): Linear(in_features=100, out_features=50, bias=True)
    (10): ReLU()
    (11): Dropout(p=0.1, inplace=False)
    (12): Linear(in_features=50, out_features=1, bias=True)
  )
)",2.917551040649414,,2.977168321609497,
21,mv_complex.pt,stochastic_rounding,histogram,8,"DenseNeuralNet(
  (net): Sequential(
    (0): Linear(in_features=10, out_features=50, bias=True)
    (1): ReLU()
    (2): Dropout(p=0.1, inplace=False)
    (3): Linear(in_features=50, out_features=100, bias=True)
    (4): ReLU()
    (5): Dropout(p=0.1, inplace=False)
    (6): Linear(in_features=100, out_features=100, bias=True)
    (7): ReLU()
    (8): Dropout(p=0.1, inplace=False)
    (9): Linear(in_features=100, out_features=50, bias=True)
    (10): ReLU()
    (11): Dropout(p=0.1, inplace=False)
    (12): Linear(in_features=50, out_features=1, bias=True)
  )
)",2.1962897777557373,,2.24672532081604,
22,mv_complex.pt,stochastic_rounding,histogram,6,"DenseNeuralNet(
  (net): Sequential(
    (0): Linear(in_features=10, out_features=50, bias=True)
    (1): ReLU()
    (2): Dropout(p=0.1, inplace=False)
    (3): Linear(in_features=50, out_features=100, bias=True)
    (4): ReLU()
    (5): Dropout(p=0.1, inplace=False)
    (6): Linear(in_features=100, out_features=100, bias=True)
    (7): ReLU()
    (8): Dropout(p=0.1, inplace=False)
    (9): Linear(in_features=100, out_features=50, bias=True)
    (10): ReLU()
    (11): Dropout(p=0.1, inplace=False)
    (12): Linear(in_features=50, out_features=1, bias=True)
  )
)",3.2860541343688965,,3.353464365005493,
23,mv_complex.pt,stochastic_rounding,histogram,4,"DenseNeuralNet(
  (net): Sequential(
    (0): Linear(in_features=10, out_features=50, bias=True)
    (1): ReLU()
    (2): Dropout(p=0.1, inplace=False)
    (3): Linear(in_features=50, out_features=100, bias=True)
    (4): ReLU()
    (5): Dropout(p=0.1, inplace=False)
    (6): Linear(in_features=100, out_features=100, bias=True)
    (7): ReLU()
    (8): Dropout(p=0.1, inplace=False)
    (9): Linear(in_features=100, out_features=50, bias=True)
    (10): ReLU()
    (11): Dropout(p=0.1, inplace=False)
    (12): Linear(in_features=50, out_features=1, bias=True)
  )
)",7.173303604125977,,7.1041693687438965,
24,mv_complex.pt,normal_rounding,uniform_range,16,"DenseNeuralNet(
  (net): Sequential(
    (0): Linear(in_features=10, out_features=50, bias=True)
    (1): ReLU()
    (2): Dropout(p=0.1, inplace=False)
    (3): Linear(in_features=50, out_features=100, bias=True)
    (4): ReLU()
    (5): Dropout(p=0.1, inplace=False)
    (6): Linear(in_features=100, out_features=100, bias=True)
    (7): ReLU()
    (8): Dropout(p=0.1, inplace=False)
    (9): Linear(in_features=100, out_features=50, bias=True)
    (10): ReLU()
    (11): Dropout(p=0.1, inplace=False)
    (12): Linear(in_features=50, out_features=1, bias=True)
  )
)",2.8458633422851562,,2.9064908027648926,
25,mv_complex.pt,normal_rounding,uniform_range,12,"DenseNeuralNet(
  (net): Sequential(
    (0): Linear(in_features=10, out_features=50, bias=True)
    (1): ReLU()
    (2): Dropout(p=0.1, inplace=False)
    (3): Linear(in_features=50, out_features=100, bias=True)
    (4): ReLU()
    (5): Dropout(p=0.1, inplace=False)
    (6): Linear(in_features=100, out_features=100, bias=True)
    (7): ReLU()
    (8): Dropout(p=0.1, inplace=False)
    (9): Linear(in_features=100, out_features=50, bias=True)
    (10): ReLU()
    (11): Dropout(p=0.1, inplace=False)
    (12): Linear(in_features=50, out_features=1, bias=True)
  )
)",2.8306446075439453,,2.89231276512146,
26,mv_complex.pt,normal_rounding,uniform_range,10,"DenseNeuralNet(
  (net): Sequential(
    (0): Linear(in_features=10, out_features=50, bias=True)
    (1): ReLU()
    (2): Dropout(p=0.1, inplace=False)
    (3): Linear(in_features=50, out_features=100, bias=True)
    (4): ReLU()
    (5): Dropout(p=0.1, inplace=False)
    (6): Linear(in_features=100, out_features=100, bias=True)
    (7): ReLU()
    (8): Dropout(p=0.1, inplace=False)
    (9): Linear(in_features=100, out_features=50, bias=True)
    (10): ReLU()
    (11): Dropout(p=0.1, inplace=False)
    (12): Linear(in_features=50, out_features=1, bias=True)
  )
)",2.8490161895751953,,2.9114439487457275,
27,mv_complex.pt,normal_rounding,uniform_range,8,"DenseNeuralNet(
  (net): Sequential(
    (0): Linear(in_features=10, out_features=50, bias=True)
    (1): ReLU()
    (2): Dropout(p=0.1, inplace=False)
    (3): Linear(in_features=50, out_features=100, bias=True)
    (4): ReLU()
    (5): Dropout(p=0.1, inplace=False)
    (6): Linear(in_features=100, out_features=100, bias=True)
    (7): ReLU()
    (8): Dropout(p=0.1, inplace=False)
    (9): Linear(in_features=100, out_features=50, bias=True)
    (10): ReLU()
    (11): Dropout(p=0.1, inplace=False)
    (12): Linear(in_features=50, out_features=1, bias=True)
  )
)",3.1289944648742676,,3.192068576812744,
28,mv_complex.pt,normal_rounding,uniform_range,6,"DenseNeuralNet(
  (net): Sequential(
    (0): Linear(in_features=10, out_features=50, bias=True)
    (1): ReLU()
    (2): Dropout(p=0.1, inplace=False)
    (3): Linear(in_features=50, out_features=100, bias=True)
    (4): ReLU()
    (5): Dropout(p=0.1, inplace=False)
    (6): Linear(in_features=100, out_features=100, bias=True)
    (7): ReLU()
    (8): Dropout(p=0.1, inplace=False)
    (9): Linear(in_features=100, out_features=50, bias=True)
    (10): ReLU()
    (11): Dropout(p=0.1, inplace=False)
    (12): Linear(in_features=50, out_features=1, bias=True)
  )
)",2.8655478954315186,,2.9057955741882324,
29,mv_complex.pt,normal_rounding,uniform_range,4,"DenseNeuralNet(
  (net): Sequential(
    (0): Linear(in_features=10, out_features=50, bias=True)
    (1): ReLU()
    (2): Dropout(p=0.1, inplace=False)
    (3): Linear(in_features=50, out_features=100, bias=True)
    (4): ReLU()
    (5): Dropout(p=0.1, inplace=False)
    (6): Linear(in_features=100, out_features=100, bias=True)
    (7): ReLU()
    (8): Dropout(p=0.1, inplace=False)
    (9): Linear(in_features=100, out_features=50, bias=True)
    (10): ReLU()
    (11): Dropout(p=0.1, inplace=False)
    (12): Linear(in_features=50, out_features=1, bias=True)
  )
)",7.166414737701416,,7.230007171630859,
30,mv_complex.pt,normal_rounding,uniform_range_IQR,16,"DenseNeuralNet(
  (net): Sequential(
    (0): Linear(in_features=10, out_features=50, bias=True)
    (1): ReLU()
    (2): Dropout(p=0.1, inplace=False)
    (3): Linear(in_features=50, out_features=100, bias=True)
    (4): ReLU()
    (5): Dropout(p=0.1, inplace=False)
    (6): Linear(in_features=100, out_features=100, bias=True)
    (7): ReLU()
    (8): Dropout(p=0.1, inplace=False)
    (9): Linear(in_features=100, out_features=50, bias=True)
    (10): ReLU()
    (11): Dropout(p=0.1, inplace=False)
    (12): Linear(in_features=50, out_features=1, bias=True)
  )
)",59.057071685791016,,59.94374084472656,
31,mv_complex.pt,normal_rounding,uniform_range_IQR,12,"DenseNeuralNet(
  (net): Sequential(
    (0): Linear(in_features=10, out_features=50, bias=True)
    (1): ReLU()
    (2): Dropout(p=0.1, inplace=False)
    (3): Linear(in_features=50, out_features=100, bias=True)
    (4): ReLU()
    (5): Dropout(p=0.1, inplace=False)
    (6): Linear(in_features=100, out_features=100, bias=True)
    (7): ReLU()
    (8): Dropout(p=0.1, inplace=False)
    (9): Linear(in_features=100, out_features=50, bias=True)
    (10): ReLU()
    (11): Dropout(p=0.1, inplace=False)
    (12): Linear(in_features=50, out_features=1, bias=True)
  )
)",59.046051025390625,,59.931095123291016,
32,mv_complex.pt,normal_rounding,uniform_range_IQR,10,"DenseNeuralNet(
  (net): Sequential(
    (0): Linear(in_features=10, out_features=50, bias=True)
    (1): ReLU()
    (2): Dropout(p=0.1, inplace=False)
    (3): Linear(in_features=50, out_features=100, bias=True)
    (4): ReLU()
    (5): Dropout(p=0.1, inplace=False)
    (6): Linear(in_features=100, out_features=100, bias=True)
    (7): ReLU()
    (8): Dropout(p=0.1, inplace=False)
    (9): Linear(in_features=100, out_features=50, bias=True)
    (10): ReLU()
    (11): Dropout(p=0.1, inplace=False)
    (12): Linear(in_features=50, out_features=1, bias=True)
  )
)",59.012290954589844,,59.859413146972656,
33,mv_complex.pt,normal_rounding,uniform_range_IQR,8,"DenseNeuralNet(
  (net): Sequential(
    (0): Linear(in_features=10, out_features=50, bias=True)
    (1): ReLU()
    (2): Dropout(p=0.1, inplace=False)
    (3): Linear(in_features=50, out_features=100, bias=True)
    (4): ReLU()
    (5): Dropout(p=0.1, inplace=False)
    (6): Linear(in_features=100, out_features=100, bias=True)
    (7): ReLU()
    (8): Dropout(p=0.1, inplace=False)
    (9): Linear(in_features=100, out_features=50, bias=True)
    (10): ReLU()
    (11): Dropout(p=0.1, inplace=False)
    (12): Linear(in_features=50, out_features=1, bias=True)
  )
)",59.196197509765625,,60.05216598510742,
34,mv_complex.pt,normal_rounding,uniform_range_IQR,6,"DenseNeuralNet(
  (net): Sequential(
    (0): Linear(in_features=10, out_features=50, bias=True)
    (1): ReLU()
    (2): Dropout(p=0.1, inplace=False)
    (3): Linear(in_features=50, out_features=100, bias=True)
    (4): ReLU()
    (5): Dropout(p=0.1, inplace=False)
    (6): Linear(in_features=100, out_features=100, bias=True)
    (7): ReLU()
    (8): Dropout(p=0.1, inplace=False)
    (9): Linear(in_features=100, out_features=50, bias=True)
    (10): ReLU()
    (11): Dropout(p=0.1, inplace=False)
    (12): Linear(in_features=50, out_features=1, bias=True)
  )
)",59.35396194458008,,60.191986083984375,
35,mv_complex.pt,normal_rounding,uniform_range_IQR,4,"DenseNeuralNet(
  (net): Sequential(
    (0): Linear(in_features=10, out_features=50, bias=True)
    (1): ReLU()
    (2): Dropout(p=0.1, inplace=False)
    (3): Linear(in_features=50, out_features=100, bias=True)
    (4): ReLU()
    (5): Dropout(p=0.1, inplace=False)
    (6): Linear(in_features=100, out_features=100, bias=True)
    (7): ReLU()
    (8): Dropout(p=0.1, inplace=False)
    (9): Linear(in_features=100, out_features=50, bias=True)
    (10): ReLU()
    (11): Dropout(p=0.1, inplace=False)
    (12): Linear(in_features=50, out_features=1, bias=True)
  )
)",45.89308166503906,,46.51057434082031,
36,mv_complex.pt,normal_rounding,prior_normal,16,"DenseNeuralNet(
  (net): Sequential(
    (0): Linear(in_features=10, out_features=50, bias=True)
    (1): ReLU()
    (2): Dropout(p=0.1, inplace=False)
    (3): Linear(in_features=50, out_features=100, bias=True)
    (4): ReLU()
    (5): Dropout(p=0.1, inplace=False)
    (6): Linear(in_features=100, out_features=100, bias=True)
    (7): ReLU()
    (8): Dropout(p=0.1, inplace=False)
    (9): Linear(in_features=100, out_features=50, bias=True)
    (10): ReLU()
    (11): Dropout(p=0.1, inplace=False)
    (12): Linear(in_features=50, out_features=1, bias=True)
  )
)",1.0641742944717407,,1.0867021083831787,
37,mv_complex.pt,normal_rounding,prior_normal,12,"DenseNeuralNet(
  (net): Sequential(
    (0): Linear(in_features=10, out_features=50, bias=True)
    (1): ReLU()
    (2): Dropout(p=0.1, inplace=False)
    (3): Linear(in_features=50, out_features=100, bias=True)
    (4): ReLU()
    (5): Dropout(p=0.1, inplace=False)
    (6): Linear(in_features=100, out_features=100, bias=True)
    (7): ReLU()
    (8): Dropout(p=0.1, inplace=False)
    (9): Linear(in_features=100, out_features=50, bias=True)
    (10): ReLU()
    (11): Dropout(p=0.1, inplace=False)
    (12): Linear(in_features=50, out_features=1, bias=True)
  )
)",1.7342349290847778,,1.7706481218338013,
38,mv_complex.pt,normal_rounding,prior_normal,10,"DenseNeuralNet(
  (net): Sequential(
    (0): Linear(in_features=10, out_features=50, bias=True)
    (1): ReLU()
    (2): Dropout(p=0.1, inplace=False)
    (3): Linear(in_features=50, out_features=100, bias=True)
    (4): ReLU()
    (5): Dropout(p=0.1, inplace=False)
    (6): Linear(in_features=100, out_features=100, bias=True)
    (7): ReLU()
    (8): Dropout(p=0.1, inplace=False)
    (9): Linear(in_features=100, out_features=50, bias=True)
    (10): ReLU()
    (11): Dropout(p=0.1, inplace=False)
    (12): Linear(in_features=50, out_features=1, bias=True)
  )
)",1.7043040990829468,,1.7319531440734863,
39,mv_complex.pt,normal_rounding,prior_normal,8,"DenseNeuralNet(
  (net): Sequential(
    (0): Linear(in_features=10, out_features=50, bias=True)
    (1): ReLU()
    (2): Dropout(p=0.1, inplace=False)
    (3): Linear(in_features=50, out_features=100, bias=True)
    (4): ReLU()
    (5): Dropout(p=0.1, inplace=False)
    (6): Linear(in_features=100, out_features=100, bias=True)
    (7): ReLU()
    (8): Dropout(p=0.1, inplace=False)
    (9): Linear(in_features=100, out_features=50, bias=True)
    (10): ReLU()
    (11): Dropout(p=0.1, inplace=False)
    (12): Linear(in_features=50, out_features=1, bias=True)
  )
)",0.8040427565574646,,0.8033358454704285,
40,mv_complex.pt,normal_rounding,prior_normal,6,"DenseNeuralNet(
  (net): Sequential(
    (0): Linear(in_features=10, out_features=50, bias=True)
    (1): ReLU()
    (2): Dropout(p=0.1, inplace=False)
    (3): Linear(in_features=50, out_features=100, bias=True)
    (4): ReLU()
    (5): Dropout(p=0.1, inplace=False)
    (6): Linear(in_features=100, out_features=100, bias=True)
    (7): ReLU()
    (8): Dropout(p=0.1, inplace=False)
    (9): Linear(in_features=100, out_features=50, bias=True)
    (10): ReLU()
    (11): Dropout(p=0.1, inplace=False)
    (12): Linear(in_features=50, out_features=1, bias=True)
  )
)",1.2564539909362793,,1.2506566047668457,
41,mv_complex.pt,normal_rounding,prior_normal,4,"DenseNeuralNet(
  (net): Sequential(
    (0): Linear(in_features=10, out_features=50, bias=True)
    (1): ReLU()
    (2): Dropout(p=0.1, inplace=False)
    (3): Linear(in_features=50, out_features=100, bias=True)
    (4): ReLU()
    (5): Dropout(p=0.1, inplace=False)
    (6): Linear(in_features=100, out_features=100, bias=True)
    (7): ReLU()
    (8): Dropout(p=0.1, inplace=False)
    (9): Linear(in_features=100, out_features=50, bias=True)
    (10): ReLU()
    (11): Dropout(p=0.1, inplace=False)
    (12): Linear(in_features=50, out_features=1, bias=True)
  )
)",5.017270565032959,,4.960664749145508,
42,mv_complex.pt,normal_rounding,histogram,16,"DenseNeuralNet(
  (net): Sequential(
    (0): Linear(in_features=10, out_features=50, bias=True)
    (1): ReLU()
    (2): Dropout(p=0.1, inplace=False)
    (3): Linear(in_features=50, out_features=100, bias=True)
    (4): ReLU()
    (5): Dropout(p=0.1, inplace=False)
    (6): Linear(in_features=100, out_features=100, bias=True)
    (7): ReLU()
    (8): Dropout(p=0.1, inplace=False)
    (9): Linear(in_features=100, out_features=50, bias=True)
    (10): ReLU()
    (11): Dropout(p=0.1, inplace=False)
    (12): Linear(in_features=50, out_features=1, bias=True)
  )
)",2.8452274799346924,,2.9060325622558594,
43,mv_complex.pt,normal_rounding,histogram,12,"DenseNeuralNet(
  (net): Sequential(
    (0): Linear(in_features=10, out_features=50, bias=True)
    (1): ReLU()
    (2): Dropout(p=0.1, inplace=False)
    (3): Linear(in_features=50, out_features=100, bias=True)
    (4): ReLU()
    (5): Dropout(p=0.1, inplace=False)
    (6): Linear(in_features=100, out_features=100, bias=True)
    (7): ReLU()
    (8): Dropout(p=0.1, inplace=False)
    (9): Linear(in_features=100, out_features=50, bias=True)
    (10): ReLU()
    (11): Dropout(p=0.1, inplace=False)
    (12): Linear(in_features=50, out_features=1, bias=True)
  )
)",2.83773136138916,,2.8992316722869873,
44,mv_complex.pt,normal_rounding,histogram,10,"DenseNeuralNet(
  (net): Sequential(
    (0): Linear(in_features=10, out_features=50, bias=True)
    (1): ReLU()
    (2): Dropout(p=0.1, inplace=False)
    (3): Linear(in_features=50, out_features=100, bias=True)
    (4): ReLU()
    (5): Dropout(p=0.1, inplace=False)
    (6): Linear(in_features=100, out_features=100, bias=True)
    (7): ReLU()
    (8): Dropout(p=0.1, inplace=False)
    (9): Linear(in_features=100, out_features=50, bias=True)
    (10): ReLU()
    (11): Dropout(p=0.1, inplace=False)
    (12): Linear(in_features=50, out_features=1, bias=True)
  )
)",2.982167959213257,,3.0449378490448,
45,mv_complex.pt,normal_rounding,histogram,8,"DenseNeuralNet(
  (net): Sequential(
    (0): Linear(in_features=10, out_features=50, bias=True)
    (1): ReLU()
    (2): Dropout(p=0.1, inplace=False)
    (3): Linear(in_features=50, out_features=100, bias=True)
    (4): ReLU()
    (5): Dropout(p=0.1, inplace=False)
    (6): Linear(in_features=100, out_features=100, bias=True)
    (7): ReLU()
    (8): Dropout(p=0.1, inplace=False)
    (9): Linear(in_features=100, out_features=50, bias=True)
    (10): ReLU()
    (11): Dropout(p=0.1, inplace=False)
    (12): Linear(in_features=50, out_features=1, bias=True)
  )
)",3.440685272216797,,3.5042665004730225,
46,mv_complex.pt,normal_rounding,histogram,6,"DenseNeuralNet(
  (net): Sequential(
    (0): Linear(in_features=10, out_features=50, bias=True)
    (1): ReLU()
    (2): Dropout(p=0.1, inplace=False)
    (3): Linear(in_features=50, out_features=100, bias=True)
    (4): ReLU()
    (5): Dropout(p=0.1, inplace=False)
    (6): Linear(in_features=100, out_features=100, bias=True)
    (7): ReLU()
    (8): Dropout(p=0.1, inplace=False)
    (9): Linear(in_features=100, out_features=50, bias=True)
    (10): ReLU()
    (11): Dropout(p=0.1, inplace=False)
    (12): Linear(in_features=50, out_features=1, bias=True)
  )
)",4.24920654296875,,4.299772262573242,
47,mv_complex.pt,normal_rounding,histogram,4,"DenseNeuralNet(
  (net): Sequential(
    (0): Linear(in_features=10, out_features=50, bias=True)
    (1): ReLU()
    (2): Dropout(p=0.1, inplace=False)
    (3): Linear(in_features=50, out_features=100, bias=True)
    (4): ReLU()
    (5): Dropout(p=0.1, inplace=False)
    (6): Linear(in_features=100, out_features=100, bias=True)
    (7): ReLU()
    (8): Dropout(p=0.1, inplace=False)
    (9): Linear(in_features=100, out_features=50, bias=True)
    (10): ReLU()
    (11): Dropout(p=0.1, inplace=False)
    (12): Linear(in_features=50, out_features=1, bias=True)
  )
)",16.752437591552734,,16.414731979370117,
48,mv_complex.pt,mid-rise,,16,"DenseNeuralNet(
  (net): Sequential(
    (0): Linear(in_features=10, out_features=50, bias=True)
    (1): ReLU()
    (2): Dropout(p=0.1, inplace=False)
    (3): Linear(in_features=50, out_features=100, bias=True)
    (4): ReLU()
    (5): Dropout(p=0.1, inplace=False)
    (6): Linear(in_features=100, out_features=100, bias=True)
    (7): ReLU()
    (8): Dropout(p=0.1, inplace=False)
    (9): Linear(in_features=100, out_features=50, bias=True)
    (10): ReLU()
    (11): Dropout(p=0.1, inplace=False)
    (12): Linear(in_features=50, out_features=1, bias=True)
  )
)",2.8464927673339844,,2.905914545059204,
49,mv_complex.pt,mid-rise,,12,"DenseNeuralNet(
  (net): Sequential(
    (0): Linear(in_features=10, out_features=50, bias=True)
    (1): ReLU()
    (2): Dropout(p=0.1, inplace=False)
    (3): Linear(in_features=50, out_features=100, bias=True)
    (4): ReLU()
    (5): Dropout(p=0.1, inplace=False)
    (6): Linear(in_features=100, out_features=100, bias=True)
    (7): ReLU()
    (8): Dropout(p=0.1, inplace=False)
    (9): Linear(in_features=100, out_features=50, bias=True)
    (10): ReLU()
    (11): Dropout(p=0.1, inplace=False)
    (12): Linear(in_features=50, out_features=1, bias=True)
  )
)",2.8493568897247314,,2.910289764404297,
50,mv_complex.pt,mid-rise,,10,"DenseNeuralNet(
  (net): Sequential(
    (0): Linear(in_features=10, out_features=50, bias=True)
    (1): ReLU()
    (2): Dropout(p=0.1, inplace=False)
    (3): Linear(in_features=50, out_features=100, bias=True)
    (4): ReLU()
    (5): Dropout(p=0.1, inplace=False)
    (6): Linear(in_features=100, out_features=100, bias=True)
    (7): ReLU()
    (8): Dropout(p=0.1, inplace=False)
    (9): Linear(in_features=100, out_features=50, bias=True)
    (10): ReLU()
    (11): Dropout(p=0.1, inplace=False)
    (12): Linear(in_features=50, out_features=1, bias=True)
  )
)",2.8711390495300293,,2.932650327682495,
51,mv_complex.pt,mid-rise,,8,"DenseNeuralNet(
  (net): Sequential(
    (0): Linear(in_features=10, out_features=50, bias=True)
    (1): ReLU()
    (2): Dropout(p=0.1, inplace=False)
    (3): Linear(in_features=50, out_features=100, bias=True)
    (4): ReLU()
    (5): Dropout(p=0.1, inplace=False)
    (6): Linear(in_features=100, out_features=100, bias=True)
    (7): ReLU()
    (8): Dropout(p=0.1, inplace=False)
    (9): Linear(in_features=100, out_features=50, bias=True)
    (10): ReLU()
    (11): Dropout(p=0.1, inplace=False)
    (12): Linear(in_features=50, out_features=1, bias=True)
  )
)",2.8220458030700684,,2.8827269077301025,
52,mv_complex.pt,mid-rise,,6,"DenseNeuralNet(
  (net): Sequential(
    (0): Linear(in_features=10, out_features=50, bias=True)
    (1): ReLU()
    (2): Dropout(p=0.1, inplace=False)
    (3): Linear(in_features=50, out_features=100, bias=True)
    (4): ReLU()
    (5): Dropout(p=0.1, inplace=False)
    (6): Linear(in_features=100, out_features=100, bias=True)
    (7): ReLU()
    (8): Dropout(p=0.1, inplace=False)
    (9): Linear(in_features=100, out_features=50, bias=True)
    (10): ReLU()
    (11): Dropout(p=0.1, inplace=False)
    (12): Linear(in_features=50, out_features=1, bias=True)
  )
)",2.6006431579589844,,2.646909236907959,
53,mv_complex.pt,mid-rise,,4,"DenseNeuralNet(
  (net): Sequential(
    (0): Linear(in_features=10, out_features=50, bias=True)
    (1): ReLU()
    (2): Dropout(p=0.1, inplace=False)
    (3): Linear(in_features=50, out_features=100, bias=True)
    (4): ReLU()
    (5): Dropout(p=0.1, inplace=False)
    (6): Linear(in_features=100, out_features=100, bias=True)
    (7): ReLU()
    (8): Dropout(p=0.1, inplace=False)
    (9): Linear(in_features=100, out_features=50, bias=True)
    (10): ReLU()
    (11): Dropout(p=0.1, inplace=False)
    (12): Linear(in_features=50, out_features=1, bias=True)
  )
)",1.0516482591629028,,1.040184736251831,
54,mv_complex.pt,mid-rise_iqr,,16,"DenseNeuralNet(
  (net): Sequential(
    (0): Linear(in_features=10, out_features=50, bias=True)
    (1): ReLU()
    (2): Dropout(p=0.1, inplace=False)
    (3): Linear(in_features=50, out_features=100, bias=True)
    (4): ReLU()
    (5): Dropout(p=0.1, inplace=False)
    (6): Linear(in_features=100, out_features=100, bias=True)
    (7): ReLU()
    (8): Dropout(p=0.1, inplace=False)
    (9): Linear(in_features=100, out_features=50, bias=True)
    (10): ReLU()
    (11): Dropout(p=0.1, inplace=False)
    (12): Linear(in_features=50, out_features=1, bias=True)
  )
)",2.8457138538360596,,2.9061620235443115,
55,mv_complex.pt,mid-rise_iqr,,12,"DenseNeuralNet(
  (net): Sequential(
    (0): Linear(in_features=10, out_features=50, bias=True)
    (1): ReLU()
    (2): Dropout(p=0.1, inplace=False)
    (3): Linear(in_features=50, out_features=100, bias=True)
    (4): ReLU()
    (5): Dropout(p=0.1, inplace=False)
    (6): Linear(in_features=100, out_features=100, bias=True)
    (7): ReLU()
    (8): Dropout(p=0.1, inplace=False)
    (9): Linear(in_features=100, out_features=50, bias=True)
    (10): ReLU()
    (11): Dropout(p=0.1, inplace=False)
    (12): Linear(in_features=50, out_features=1, bias=True)
  )
)",2.8454768657684326,,2.904663562774658,
56,mv_complex.pt,mid-rise_iqr,,10,"DenseNeuralNet(
  (net): Sequential(
    (0): Linear(in_features=10, out_features=50, bias=True)
    (1): ReLU()
    (2): Dropout(p=0.1, inplace=False)
    (3): Linear(in_features=50, out_features=100, bias=True)
    (4): ReLU()
    (5): Dropout(p=0.1, inplace=False)
    (6): Linear(in_features=100, out_features=100, bias=True)
    (7): ReLU()
    (8): Dropout(p=0.1, inplace=False)
    (9): Linear(in_features=100, out_features=50, bias=True)
    (10): ReLU()
    (11): Dropout(p=0.1, inplace=False)
    (12): Linear(in_features=50, out_features=1, bias=True)
  )
)",2.797598123550415,,2.8577828407287598,
57,mv_complex.pt,mid-rise_iqr,,8,"DenseNeuralNet(
  (net): Sequential(
    (0): Linear(in_features=10, out_features=50, bias=True)
    (1): ReLU()
    (2): Dropout(p=0.1, inplace=False)
    (3): Linear(in_features=50, out_features=100, bias=True)
    (4): ReLU()
    (5): Dropout(p=0.1, inplace=False)
    (6): Linear(in_features=100, out_features=100, bias=True)
    (7): ReLU()
    (8): Dropout(p=0.1, inplace=False)
    (9): Linear(in_features=100, out_features=50, bias=True)
    (10): ReLU()
    (11): Dropout(p=0.1, inplace=False)
    (12): Linear(in_features=50, out_features=1, bias=True)
  )
)",2.9201619625091553,,2.98372745513916,
58,mv_complex.pt,mid-rise_iqr,,6,"DenseNeuralNet(
  (net): Sequential(
    (0): Linear(in_features=10, out_features=50, bias=True)
    (1): ReLU()
    (2): Dropout(p=0.1, inplace=False)
    (3): Linear(in_features=50, out_features=100, bias=True)
    (4): ReLU()
    (5): Dropout(p=0.1, inplace=False)
    (6): Linear(in_features=100, out_features=100, bias=True)
    (7): ReLU()
    (8): Dropout(p=0.1, inplace=False)
    (9): Linear(in_features=100, out_features=50, bias=True)
    (10): ReLU()
    (11): Dropout(p=0.1, inplace=False)
    (12): Linear(in_features=50, out_features=1, bias=True)
  )
)",2.664562463760376,,2.723402261734009,
59,mv_complex.pt,mid-rise_iqr,,4,"DenseNeuralNet(
  (net): Sequential(
    (0): Linear(in_features=10, out_features=50, bias=True)
    (1): ReLU()
    (2): Dropout(p=0.1, inplace=False)
    (3): Linear(in_features=50, out_features=100, bias=True)
    (4): ReLU()
    (5): Dropout(p=0.1, inplace=False)
    (6): Linear(in_features=100, out_features=100, bias=True)
    (7): ReLU()
    (8): Dropout(p=0.1, inplace=False)
    (9): Linear(in_features=100, out_features=50, bias=True)
    (10): ReLU()
    (11): Dropout(p=0.1, inplace=False)
    (12): Linear(in_features=50, out_features=1, bias=True)
  )
)",6.595348358154297,,6.678836822509766,
