,model,pruning_percentage,model_artifact,pruned_model_artifact,train_loss,train_acc,test_loss,test_acc
0,churn_simple.pt,0.0,"DenseNeuralNet(
  (net): Sequential(
    (0): Linear(in_features=13, out_features=10, bias=True)
    (1): ReLU()
    (2): Linear(in_features=10, out_features=2, bias=True)
  )
)","DenseNeuralNet(
  (net): Sequential(
    (0): Linear(in_features=13, out_features=10, bias=True)
    (1): ReLU()
    (2): Linear(in_features=10, out_features=2, bias=True)
  )
)",0.3458254933357239,0.856,0.35411888360977173,0.856
1,churn_simple.pt,0.05,"DenseNeuralNet(
  (net): Sequential(
    (0): Linear(in_features=13, out_features=10, bias=True)
    (1): ReLU()
    (2): Linear(in_features=10, out_features=2, bias=True)
  )
)","DenseNeuralNet(
  (net): Sequential(
    (0): Linear(in_features=13, out_features=10, bias=True)
    (1): ReLU()
    (2): Linear(in_features=10, out_features=2, bias=True)
  )
)",0.3469260334968567,0.857,0.35462242364883423,0.8555
2,churn_simple.pt,0.1,"DenseNeuralNet(
  (net): Sequential(
    (0): Linear(in_features=13, out_features=10, bias=True)
    (1): ReLU()
    (2): Linear(in_features=10, out_features=2, bias=True)
  )
)","DenseNeuralNet(
  (net): Sequential(
    (0): Linear(in_features=13, out_features=10, bias=True)
    (1): ReLU()
    (2): Linear(in_features=10, out_features=2, bias=True)
  )
)",0.3475031852722168,0.8573333333333333,0.3553082346916199,0.856
3,churn_simple.pt,0.15,"DenseNeuralNet(
  (net): Sequential(
    (0): Linear(in_features=13, out_features=10, bias=True)
    (1): ReLU()
    (2): Linear(in_features=10, out_features=2, bias=True)
  )
)","DenseNeuralNet(
  (net): Sequential(
    (0): Linear(in_features=13, out_features=10, bias=True)
    (1): ReLU()
    (2): Linear(in_features=10, out_features=2, bias=True)
  )
)",0.3487142026424408,0.8581666666666666,0.3553132712841034,0.858
4,churn_simple.pt,0.2,"DenseNeuralNet(
  (net): Sequential(
    (0): Linear(in_features=13, out_features=10, bias=True)
    (1): ReLU()
    (2): Linear(in_features=10, out_features=2, bias=True)
  )
)","DenseNeuralNet(
  (net): Sequential(
    (0): Linear(in_features=13, out_features=10, bias=True)
    (1): ReLU()
    (2): Linear(in_features=10, out_features=2, bias=True)
  )
)",0.34912651777267456,0.8575,0.35411006212234497,0.861
5,churn_simple.pt,0.25,"DenseNeuralNet(
  (net): Sequential(
    (0): Linear(in_features=13, out_features=10, bias=True)
    (1): ReLU()
    (2): Linear(in_features=10, out_features=2, bias=True)
  )
)","DenseNeuralNet(
  (net): Sequential(
    (0): Linear(in_features=13, out_features=10, bias=True)
    (1): ReLU()
    (2): Linear(in_features=10, out_features=2, bias=True)
  )
)",0.3553764522075653,0.8525,0.3584873080253601,0.8575
6,churn_simple.pt,0.3,"DenseNeuralNet(
  (net): Sequential(
    (0): Linear(in_features=13, out_features=10, bias=True)
    (1): ReLU()
    (2): Linear(in_features=10, out_features=2, bias=True)
  )
)","DenseNeuralNet(
  (net): Sequential(
    (0): Linear(in_features=13, out_features=10, bias=True)
    (1): ReLU()
    (2): Linear(in_features=10, out_features=2, bias=True)
  )
)",0.3584103584289551,0.8551666666666666,0.36053258180618286,0.8595
7,churn_simple.pt,0.35,"DenseNeuralNet(
  (net): Sequential(
    (0): Linear(in_features=13, out_features=10, bias=True)
    (1): ReLU()
    (2): Linear(in_features=10, out_features=2, bias=True)
  )
)","DenseNeuralNet(
  (net): Sequential(
    (0): Linear(in_features=13, out_features=10, bias=True)
    (1): ReLU()
    (2): Linear(in_features=10, out_features=2, bias=True)
  )
)",0.36420565843582153,0.855,0.3672185242176056,0.858
8,churn_simple.pt,0.4,"DenseNeuralNet(
  (net): Sequential(
    (0): Linear(in_features=13, out_features=10, bias=True)
    (1): ReLU()
    (2): Linear(in_features=10, out_features=2, bias=True)
  )
)","DenseNeuralNet(
  (net): Sequential(
    (0): Linear(in_features=13, out_features=10, bias=True)
    (1): ReLU()
    (2): Linear(in_features=10, out_features=2, bias=True)
  )
)",0.3718971014022827,0.8546666666666667,0.3731658160686493,0.859
9,churn_simple.pt,0.45,"DenseNeuralNet(
  (net): Sequential(
    (0): Linear(in_features=13, out_features=10, bias=True)
    (1): ReLU()
    (2): Linear(in_features=10, out_features=2, bias=True)
  )
)","DenseNeuralNet(
  (net): Sequential(
    (0): Linear(in_features=13, out_features=10, bias=True)
    (1): ReLU()
    (2): Linear(in_features=10, out_features=2, bias=True)
  )
)",0.3799690902233124,0.8525,0.37968504428863525,0.857
10,churn_simple.pt,0.5,"DenseNeuralNet(
  (net): Sequential(
    (0): Linear(in_features=13, out_features=10, bias=True)
    (1): ReLU()
    (2): Linear(in_features=10, out_features=2, bias=True)
  )
)","DenseNeuralNet(
  (net): Sequential(
    (0): Linear(in_features=13, out_features=10, bias=True)
    (1): ReLU()
    (2): Linear(in_features=10, out_features=2, bias=True)
  )
)",0.38392162322998047,0.8468333333333333,0.3796997368335724,0.8515
11,churn_simple.pt,0.6,"DenseNeuralNet(
  (net): Sequential(
    (0): Linear(in_features=13, out_features=10, bias=True)
    (1): ReLU()
    (2): Linear(in_features=10, out_features=2, bias=True)
  )
)","DenseNeuralNet(
  (net): Sequential(
    (0): Linear(in_features=13, out_features=10, bias=True)
    (1): ReLU()
    (2): Linear(in_features=10, out_features=2, bias=True)
  )
)",0.3934665620326996,0.844,0.3892099857330322,0.85
12,churn_simple.pt,0.7,"DenseNeuralNet(
  (net): Sequential(
    (0): Linear(in_features=13, out_features=10, bias=True)
    (1): ReLU()
    (2): Linear(in_features=10, out_features=2, bias=True)
  )
)","DenseNeuralNet(
  (net): Sequential(
    (0): Linear(in_features=13, out_features=10, bias=True)
    (1): ReLU()
    (2): Linear(in_features=10, out_features=2, bias=True)
  )
)",0.6197713613510132,0.6856666666666666,0.6091246604919434,0.695
13,churn_simple.pt,0.8,"DenseNeuralNet(
  (net): Sequential(
    (0): Linear(in_features=13, out_features=10, bias=True)
    (1): ReLU()
    (2): Linear(in_features=10, out_features=2, bias=True)
  )
)","DenseNeuralNet(
  (net): Sequential(
    (0): Linear(in_features=13, out_features=10, bias=True)
    (1): ReLU()
    (2): Linear(in_features=10, out_features=2, bias=True)
  )
)",0.8987531065940857,0.4231666666666667,0.8780006766319275,0.449
14,churn_simple.pt,0.9,"DenseNeuralNet(
  (net): Sequential(
    (0): Linear(in_features=13, out_features=10, bias=True)
    (1): ReLU()
    (2): Linear(in_features=10, out_features=2, bias=True)
  )
)","DenseNeuralNet(
  (net): Sequential(
    (0): Linear(in_features=13, out_features=10, bias=True)
    (1): ReLU()
    (2): Linear(in_features=10, out_features=2, bias=True)
  )
)",0.782879650592804,0.4231666666666667,0.7637830376625061,0.449
15,churn_simple.pt,0.95,"DenseNeuralNet(
  (net): Sequential(
    (0): Linear(in_features=13, out_features=10, bias=True)
    (1): ReLU()
    (2): Linear(in_features=10, out_features=2, bias=True)
  )
)","DenseNeuralNet(
  (net): Sequential(
    (0): Linear(in_features=13, out_features=10, bias=True)
    (1): ReLU()
    (2): Linear(in_features=10, out_features=2, bias=True)
  )
)",0.612295389175415,0.7985,0.6126052737236023,0.7975
16,churn_simple.pt,0.97,"DenseNeuralNet(
  (net): Sequential(
    (0): Linear(in_features=13, out_features=10, bias=True)
    (1): ReLU()
    (2): Linear(in_features=10, out_features=2, bias=True)
  )
)","DenseNeuralNet(
  (net): Sequential(
    (0): Linear(in_features=13, out_features=10, bias=True)
    (1): ReLU()
    (2): Linear(in_features=10, out_features=2, bias=True)
  )
)",0.612295389175415,0.7985,0.6126052737236023,0.7975
17,churn_simple.pt,0.99,"DenseNeuralNet(
  (net): Sequential(
    (0): Linear(in_features=13, out_features=10, bias=True)
    (1): ReLU()
    (2): Linear(in_features=10, out_features=2, bias=True)
  )
)","DenseNeuralNet(
  (net): Sequential(
    (0): Linear(in_features=13, out_features=10, bias=True)
    (1): ReLU()
    (2): Linear(in_features=10, out_features=2, bias=True)
  )
)",0.6122953295707703,0.7985,0.6126052737236023,0.7975
