,model,pruning_percentage,model_artifact,pruned_model_artifact,train_loss,train_acc,test_loss,test_acc
0,telescope_simple.pt,0.0,"DenseNeuralNet(
  (net): Sequential(
    (0): Linear(in_features=10, out_features=10, bias=True)
    (1): ReLU()
    (2): Linear(in_features=10, out_features=2, bias=True)
  )
)","DenseNeuralNet(
  (net): Sequential(
    (0): Linear(in_features=10, out_features=10, bias=True)
    (1): ReLU()
    (2): Linear(in_features=10, out_features=2, bias=True)
  )
)",0.33875134587287903,0.8621626358219419,0.3451032042503357,0.8588328075709779
1,telescope_simple.pt,0.05,"DenseNeuralNet(
  (net): Sequential(
    (0): Linear(in_features=10, out_features=10, bias=True)
    (1): ReLU()
    (2): Linear(in_features=10, out_features=2, bias=True)
  )
)","DenseNeuralNet(
  (net): Sequential(
    (0): Linear(in_features=10, out_features=10, bias=True)
    (1): ReLU()
    (2): Linear(in_features=10, out_features=2, bias=True)
  )
)",0.3397979736328125,0.8603224675779881,0.3462870419025421,0.8567297581493165
2,telescope_simple.pt,0.1,"DenseNeuralNet(
  (net): Sequential(
    (0): Linear(in_features=10, out_features=10, bias=True)
    (1): ReLU()
    (2): Linear(in_features=10, out_features=2, bias=True)
  )
)","DenseNeuralNet(
  (net): Sequential(
    (0): Linear(in_features=10, out_features=10, bias=True)
    (1): ReLU()
    (2): Linear(in_features=10, out_features=2, bias=True)
  )
)",0.3412366807460785,0.8594461969856292,0.34811535477638245,0.8562039957939012
3,telescope_simple.pt,0.15,"DenseNeuralNet(
  (net): Sequential(
    (0): Linear(in_features=10, out_features=10, bias=True)
    (1): ReLU()
    (2): Linear(in_features=10, out_features=2, bias=True)
  )
)","DenseNeuralNet(
  (net): Sequential(
    (0): Linear(in_features=10, out_features=10, bias=True)
    (1): ReLU()
    (2): Linear(in_features=10, out_features=2, bias=True)
  )
)",0.34543174505233765,0.8599719593410445,0.35362717509269714,0.8530494216614091
4,telescope_simple.pt,0.2,"DenseNeuralNet(
  (net): Sequential(
    (0): Linear(in_features=10, out_features=10, bias=True)
    (1): ReLU()
    (2): Linear(in_features=10, out_features=2, bias=True)
  )
)","DenseNeuralNet(
  (net): Sequential(
    (0): Linear(in_features=10, out_features=10, bias=True)
    (1): ReLU()
    (2): Linear(in_features=10, out_features=2, bias=True)
  )
)",0.35529765486717224,0.8553277252015422,0.3649342358112335,0.8430599369085173
5,telescope_simple.pt,0.25,"DenseNeuralNet(
  (net): Sequential(
    (0): Linear(in_features=10, out_features=10, bias=True)
    (1): ReLU()
    (2): Linear(in_features=10, out_features=2, bias=True)
  )
)","DenseNeuralNet(
  (net): Sequential(
    (0): Linear(in_features=10, out_features=10, bias=True)
    (1): ReLU()
    (2): Linear(in_features=10, out_features=2, bias=True)
  )
)",0.3534087836742401,0.8540133193130038,0.3610537350177765,0.8456887486855941
6,telescope_simple.pt,0.3,"DenseNeuralNet(
  (net): Sequential(
    (0): Linear(in_features=10, out_features=10, bias=True)
    (1): ReLU()
    (2): Linear(in_features=10, out_features=2, bias=True)
  )
)","DenseNeuralNet(
  (net): Sequential(
    (0): Linear(in_features=10, out_features=10, bias=True)
    (1): ReLU()
    (2): Linear(in_features=10, out_features=2, bias=True)
  )
)",0.3544805347919464,0.8559411146161935,0.3597417175769806,0.85068349106204
7,telescope_simple.pt,0.35,"DenseNeuralNet(
  (net): Sequential(
    (0): Linear(in_features=10, out_features=10, bias=True)
    (1): ReLU()
    (2): Linear(in_features=10, out_features=2, bias=True)
  )
)","DenseNeuralNet(
  (net): Sequential(
    (0): Linear(in_features=10, out_features=10, bias=True)
    (1): ReLU()
    (2): Linear(in_features=10, out_features=2, bias=True)
  )
)",0.36091458797454834,0.8536628110760602,0.36700496077537537,0.8467402733964248
8,telescope_simple.pt,0.4,"DenseNeuralNet(
  (net): Sequential(
    (0): Linear(in_features=10, out_features=10, bias=True)
    (1): ReLU()
    (2): Linear(in_features=10, out_features=2, bias=True)
  )
)","DenseNeuralNet(
  (net): Sequential(
    (0): Linear(in_features=10, out_features=10, bias=True)
    (1): ReLU()
    (2): Linear(in_features=10, out_features=2, bias=True)
  )
)",0.3784078359603882,0.8395548545390816,0.38967302441596985,0.8291272344900105
9,telescope_simple.pt,0.45,"DenseNeuralNet(
  (net): Sequential(
    (0): Linear(in_features=10, out_features=10, bias=True)
    (1): ReLU()
    (2): Linear(in_features=10, out_features=2, bias=True)
  )
)","DenseNeuralNet(
  (net): Sequential(
    (0): Linear(in_features=10, out_features=10, bias=True)
    (1): ReLU()
    (2): Linear(in_features=10, out_features=2, bias=True)
  )
)",0.3821156322956085,0.844111461619348,0.3909125030040741,0.8346477392218717
10,telescope_simple.pt,0.5,"DenseNeuralNet(
  (net): Sequential(
    (0): Linear(in_features=10, out_features=10, bias=True)
    (1): ReLU()
    (2): Linear(in_features=10, out_features=2, bias=True)
  )
)","DenseNeuralNet(
  (net): Sequential(
    (0): Linear(in_features=10, out_features=10, bias=True)
    (1): ReLU()
    (2): Linear(in_features=10, out_features=2, bias=True)
  )
)",0.3904680609703064,0.8428846827900456,0.39918723702430725,0.8275499474237644
11,telescope_simple.pt,0.6,"DenseNeuralNet(
  (net): Sequential(
    (0): Linear(in_features=10, out_features=10, bias=True)
    (1): ReLU()
    (2): Linear(in_features=10, out_features=2, bias=True)
  )
)","DenseNeuralNet(
  (net): Sequential(
    (0): Linear(in_features=10, out_features=10, bias=True)
    (1): ReLU()
    (2): Linear(in_features=10, out_features=2, bias=True)
  )
)",0.4687929153442383,0.7911847178408693,0.4770072102546692,0.7765509989484752
12,telescope_simple.pt,0.7,"DenseNeuralNet(
  (net): Sequential(
    (0): Linear(in_features=10, out_features=10, bias=True)
    (1): ReLU()
    (2): Linear(in_features=10, out_features=2, bias=True)
  )
)","DenseNeuralNet(
  (net): Sequential(
    (0): Linear(in_features=10, out_features=10, bias=True)
    (1): ReLU()
    (2): Linear(in_features=10, out_features=2, bias=True)
  )
)",0.5160627365112305,0.7721696459866807,0.5288577675819397,0.7599894847528917
13,telescope_simple.pt,0.8,"DenseNeuralNet(
  (net): Sequential(
    (0): Linear(in_features=10, out_features=10, bias=True)
    (1): ReLU()
    (2): Linear(in_features=10, out_features=2, bias=True)
  )
)","DenseNeuralNet(
  (net): Sequential(
    (0): Linear(in_features=10, out_features=10, bias=True)
    (1): ReLU()
    (2): Linear(in_features=10, out_features=2, bias=True)
  )
)",0.4678073823451996,0.8015247108307045,0.47327712178230286,0.7975814931650894
14,telescope_simple.pt,0.9,"DenseNeuralNet(
  (net): Sequential(
    (0): Linear(in_features=10, out_features=10, bias=True)
    (1): ReLU()
    (2): Linear(in_features=10, out_features=2, bias=True)
  )
)","DenseNeuralNet(
  (net): Sequential(
    (0): Linear(in_features=10, out_features=10, bias=True)
    (1): ReLU()
    (2): Linear(in_features=10, out_features=2, bias=True)
  )
)",0.6668785214424133,0.6459866806869962,0.6568450927734375,0.6632492113564669
15,telescope_simple.pt,0.95,"DenseNeuralNet(
  (net): Sequential(
    (0): Linear(in_features=10, out_features=10, bias=True)
    (1): ReLU()
    (2): Linear(in_features=10, out_features=2, bias=True)
  )
)","DenseNeuralNet(
  (net): Sequential(
    (0): Linear(in_features=10, out_features=10, bias=True)
    (1): ReLU()
    (2): Linear(in_features=10, out_features=2, bias=True)
  )
)",0.8551503419876099,0.34630213810024535,0.8456553816795349,0.3601472134595163
16,telescope_simple.pt,0.97,"DenseNeuralNet(
  (net): Sequential(
    (0): Linear(in_features=10, out_features=10, bias=True)
    (1): ReLU()
    (2): Linear(in_features=10, out_features=2, bias=True)
  )
)","DenseNeuralNet(
  (net): Sequential(
    (0): Linear(in_features=10, out_features=10, bias=True)
    (1): ReLU()
    (2): Linear(in_features=10, out_features=2, bias=True)
  )
)",0.8549704551696777,0.34630213810024535,0.8455955982208252,0.3601472134595163
17,telescope_simple.pt,0.99,"DenseNeuralNet(
  (net): Sequential(
    (0): Linear(in_features=10, out_features=10, bias=True)
    (1): ReLU()
    (2): Linear(in_features=10, out_features=2, bias=True)
  )
)","DenseNeuralNet(
  (net): Sequential(
    (0): Linear(in_features=10, out_features=10, bias=True)
    (1): ReLU()
    (2): Linear(in_features=10, out_features=2, bias=True)
  )
)",0.8551497459411621,0.34630213810024535,0.8455358147621155,0.3601472134595163
