,model,pruning_percentage,model_artifact,pruned_model_artifact,train_loss,train_acc,test_loss,test_acc
0,telescope_complex.pt,0.0,"DenseNeuralNet(
  (net): Sequential(
    (0): Linear(in_features=10, out_features=20, bias=True)
    (1): ReLU()
    (2): Dropout(p=0.1, inplace=False)
    (3): Linear(in_features=20, out_features=40, bias=True)
    (4): ReLU()
    (5): Dropout(p=0.1, inplace=False)
    (6): Linear(in_features=40, out_features=60, bias=True)
    (7): ReLU()
    (8): Dropout(p=0.1, inplace=False)
    (9): Linear(in_features=60, out_features=30, bias=True)
    (10): ReLU()
    (11): Dropout(p=0.1, inplace=False)
    (12): Linear(in_features=30, out_features=2, bias=True)
  )
)","DenseNeuralNet(
  (net): Sequential(
    (0): Linear(in_features=10, out_features=20, bias=True)
    (1): ReLU()
    (2): Dropout(p=0.1, inplace=False)
    (3): Linear(in_features=20, out_features=40, bias=True)
    (4): ReLU()
    (5): Dropout(p=0.1, inplace=False)
    (6): Linear(in_features=40, out_features=60, bias=True)
    (7): ReLU()
    (8): Dropout(p=0.1, inplace=False)
    (9): Linear(in_features=60, out_features=30, bias=True)
    (10): ReLU()
    (11): Dropout(p=0.1, inplace=False)
    (12): Linear(in_features=30, out_features=2, bias=True)
  )
)",0.3096458911895752,0.8703995793901157,0.3208712339401245,0.8669821240799159
1,telescope_complex.pt,0.05,"DenseNeuralNet(
  (net): Sequential(
    (0): Linear(in_features=10, out_features=20, bias=True)
    (1): ReLU()
    (2): Dropout(p=0.1, inplace=False)
    (3): Linear(in_features=20, out_features=40, bias=True)
    (4): ReLU()
    (5): Dropout(p=0.1, inplace=False)
    (6): Linear(in_features=40, out_features=60, bias=True)
    (7): ReLU()
    (8): Dropout(p=0.1, inplace=False)
    (9): Linear(in_features=60, out_features=30, bias=True)
    (10): ReLU()
    (11): Dropout(p=0.1, inplace=False)
    (12): Linear(in_features=30, out_features=2, bias=True)
  )
)","DenseNeuralNet(
  (net): Sequential(
    (0): Linear(in_features=10, out_features=20, bias=True)
    (1): ReLU()
    (2): Dropout(p=0.1, inplace=False)
    (3): Linear(in_features=20, out_features=40, bias=True)
    (4): ReLU()
    (5): Dropout(p=0.1, inplace=False)
    (6): Linear(in_features=40, out_features=60, bias=True)
    (7): ReLU()
    (8): Dropout(p=0.1, inplace=False)
    (9): Linear(in_features=60, out_features=30, bias=True)
    (10): ReLU()
    (11): Dropout(p=0.1, inplace=False)
    (12): Linear(in_features=30, out_features=2, bias=True)
  )
)",0.31083807349205017,0.8697861899754644,0.3213273882865906,0.8669821240799159
2,telescope_complex.pt,0.1,"DenseNeuralNet(
  (net): Sequential(
    (0): Linear(in_features=10, out_features=20, bias=True)
    (1): ReLU()
    (2): Dropout(p=0.1, inplace=False)
    (3): Linear(in_features=20, out_features=40, bias=True)
    (4): ReLU()
    (5): Dropout(p=0.1, inplace=False)
    (6): Linear(in_features=40, out_features=60, bias=True)
    (7): ReLU()
    (8): Dropout(p=0.1, inplace=False)
    (9): Linear(in_features=60, out_features=30, bias=True)
    (10): ReLU()
    (11): Dropout(p=0.1, inplace=False)
    (12): Linear(in_features=30, out_features=2, bias=True)
  )
)","DenseNeuralNet(
  (net): Sequential(
    (0): Linear(in_features=10, out_features=20, bias=True)
    (1): ReLU()
    (2): Dropout(p=0.1, inplace=False)
    (3): Linear(in_features=20, out_features=40, bias=True)
    (4): ReLU()
    (5): Dropout(p=0.1, inplace=False)
    (6): Linear(in_features=40, out_features=60, bias=True)
    (7): ReLU()
    (8): Dropout(p=0.1, inplace=False)
    (9): Linear(in_features=60, out_features=30, bias=True)
    (10): ReLU()
    (11): Dropout(p=0.1, inplace=False)
    (12): Linear(in_features=30, out_features=2, bias=True)
  )
)",0.31372466683387756,0.867770767613039,0.32423076033592224,0.863564668769716
3,telescope_complex.pt,0.15,"DenseNeuralNet(
  (net): Sequential(
    (0): Linear(in_features=10, out_features=20, bias=True)
    (1): ReLU()
    (2): Dropout(p=0.1, inplace=False)
    (3): Linear(in_features=20, out_features=40, bias=True)
    (4): ReLU()
    (5): Dropout(p=0.1, inplace=False)
    (6): Linear(in_features=40, out_features=60, bias=True)
    (7): ReLU()
    (8): Dropout(p=0.1, inplace=False)
    (9): Linear(in_features=60, out_features=30, bias=True)
    (10): ReLU()
    (11): Dropout(p=0.1, inplace=False)
    (12): Linear(in_features=30, out_features=2, bias=True)
  )
)","DenseNeuralNet(
  (net): Sequential(
    (0): Linear(in_features=10, out_features=20, bias=True)
    (1): ReLU()
    (2): Dropout(p=0.1, inplace=False)
    (3): Linear(in_features=20, out_features=40, bias=True)
    (4): ReLU()
    (5): Dropout(p=0.1, inplace=False)
    (6): Linear(in_features=40, out_features=60, bias=True)
    (7): ReLU()
    (8): Dropout(p=0.1, inplace=False)
    (9): Linear(in_features=60, out_features=30, bias=True)
    (10): ReLU()
    (11): Dropout(p=0.1, inplace=False)
    (12): Linear(in_features=30, out_features=2, bias=True)
  )
)",0.3109833002090454,0.8683841570276901,0.32077449560165405,0.8654048370136698
4,telescope_complex.pt,0.2,"DenseNeuralNet(
  (net): Sequential(
    (0): Linear(in_features=10, out_features=20, bias=True)
    (1): ReLU()
    (2): Dropout(p=0.1, inplace=False)
    (3): Linear(in_features=20, out_features=40, bias=True)
    (4): ReLU()
    (5): Dropout(p=0.1, inplace=False)
    (6): Linear(in_features=40, out_features=60, bias=True)
    (7): ReLU()
    (8): Dropout(p=0.1, inplace=False)
    (9): Linear(in_features=60, out_features=30, bias=True)
    (10): ReLU()
    (11): Dropout(p=0.1, inplace=False)
    (12): Linear(in_features=30, out_features=2, bias=True)
  )
)","DenseNeuralNet(
  (net): Sequential(
    (0): Linear(in_features=10, out_features=20, bias=True)
    (1): ReLU()
    (2): Dropout(p=0.1, inplace=False)
    (3): Linear(in_features=20, out_features=40, bias=True)
    (4): ReLU()
    (5): Dropout(p=0.1, inplace=False)
    (6): Linear(in_features=40, out_features=60, bias=True)
    (7): ReLU()
    (8): Dropout(p=0.1, inplace=False)
    (9): Linear(in_features=60, out_features=30, bias=True)
    (10): ReLU()
    (11): Dropout(p=0.1, inplace=False)
    (12): Linear(in_features=30, out_features=2, bias=True)
  )
)",0.3129553198814392,0.8680336487907466,0.32231128215789795,0.8654048370136698
5,telescope_complex.pt,0.25,"DenseNeuralNet(
  (net): Sequential(
    (0): Linear(in_features=10, out_features=20, bias=True)
    (1): ReLU()
    (2): Dropout(p=0.1, inplace=False)
    (3): Linear(in_features=20, out_features=40, bias=True)
    (4): ReLU()
    (5): Dropout(p=0.1, inplace=False)
    (6): Linear(in_features=40, out_features=60, bias=True)
    (7): ReLU()
    (8): Dropout(p=0.1, inplace=False)
    (9): Linear(in_features=60, out_features=30, bias=True)
    (10): ReLU()
    (11): Dropout(p=0.1, inplace=False)
    (12): Linear(in_features=30, out_features=2, bias=True)
  )
)","DenseNeuralNet(
  (net): Sequential(
    (0): Linear(in_features=10, out_features=20, bias=True)
    (1): ReLU()
    (2): Dropout(p=0.1, inplace=False)
    (3): Linear(in_features=20, out_features=40, bias=True)
    (4): ReLU()
    (5): Dropout(p=0.1, inplace=False)
    (6): Linear(in_features=40, out_features=60, bias=True)
    (7): ReLU()
    (8): Dropout(p=0.1, inplace=False)
    (9): Linear(in_features=60, out_features=30, bias=True)
    (10): ReLU()
    (11): Dropout(p=0.1, inplace=False)
    (12): Linear(in_features=30, out_features=2, bias=True)
  )
)",0.31274479627609253,0.8669821240799159,0.32006677985191345,0.8643533123028391
6,telescope_complex.pt,0.3,"DenseNeuralNet(
  (net): Sequential(
    (0): Linear(in_features=10, out_features=20, bias=True)
    (1): ReLU()
    (2): Dropout(p=0.1, inplace=False)
    (3): Linear(in_features=20, out_features=40, bias=True)
    (4): ReLU()
    (5): Dropout(p=0.1, inplace=False)
    (6): Linear(in_features=40, out_features=60, bias=True)
    (7): ReLU()
    (8): Dropout(p=0.1, inplace=False)
    (9): Linear(in_features=60, out_features=30, bias=True)
    (10): ReLU()
    (11): Dropout(p=0.1, inplace=False)
    (12): Linear(in_features=30, out_features=2, bias=True)
  )
)","DenseNeuralNet(
  (net): Sequential(
    (0): Linear(in_features=10, out_features=20, bias=True)
    (1): ReLU()
    (2): Dropout(p=0.1, inplace=False)
    (3): Linear(in_features=20, out_features=40, bias=True)
    (4): ReLU()
    (5): Dropout(p=0.1, inplace=False)
    (6): Linear(in_features=40, out_features=60, bias=True)
    (7): ReLU()
    (8): Dropout(p=0.1, inplace=False)
    (9): Linear(in_features=60, out_features=30, bias=True)
    (10): ReLU()
    (11): Dropout(p=0.1, inplace=False)
    (12): Linear(in_features=30, out_features=2, bias=True)
  )
)",0.31199973821640015,0.868559411146162,0.31777292490005493,0.8661934805467929
7,telescope_complex.pt,0.35,"DenseNeuralNet(
  (net): Sequential(
    (0): Linear(in_features=10, out_features=20, bias=True)
    (1): ReLU()
    (2): Dropout(p=0.1, inplace=False)
    (3): Linear(in_features=20, out_features=40, bias=True)
    (4): ReLU()
    (5): Dropout(p=0.1, inplace=False)
    (6): Linear(in_features=40, out_features=60, bias=True)
    (7): ReLU()
    (8): Dropout(p=0.1, inplace=False)
    (9): Linear(in_features=60, out_features=30, bias=True)
    (10): ReLU()
    (11): Dropout(p=0.1, inplace=False)
    (12): Linear(in_features=30, out_features=2, bias=True)
  )
)","DenseNeuralNet(
  (net): Sequential(
    (0): Linear(in_features=10, out_features=20, bias=True)
    (1): ReLU()
    (2): Dropout(p=0.1, inplace=False)
    (3): Linear(in_features=20, out_features=40, bias=True)
    (4): ReLU()
    (5): Dropout(p=0.1, inplace=False)
    (6): Linear(in_features=40, out_features=60, bias=True)
    (7): ReLU()
    (8): Dropout(p=0.1, inplace=False)
    (9): Linear(in_features=60, out_features=30, bias=True)
    (10): ReLU()
    (11): Dropout(p=0.1, inplace=False)
    (12): Linear(in_features=30, out_features=2, bias=True)
  )
)",0.3114427924156189,0.8687346652646337,0.31441524624824524,0.8690851735015773
8,telescope_complex.pt,0.4,"DenseNeuralNet(
  (net): Sequential(
    (0): Linear(in_features=10, out_features=20, bias=True)
    (1): ReLU()
    (2): Dropout(p=0.1, inplace=False)
    (3): Linear(in_features=20, out_features=40, bias=True)
    (4): ReLU()
    (5): Dropout(p=0.1, inplace=False)
    (6): Linear(in_features=40, out_features=60, bias=True)
    (7): ReLU()
    (8): Dropout(p=0.1, inplace=False)
    (9): Linear(in_features=60, out_features=30, bias=True)
    (10): ReLU()
    (11): Dropout(p=0.1, inplace=False)
    (12): Linear(in_features=30, out_features=2, bias=True)
  )
)","DenseNeuralNet(
  (net): Sequential(
    (0): Linear(in_features=10, out_features=20, bias=True)
    (1): ReLU()
    (2): Dropout(p=0.1, inplace=False)
    (3): Linear(in_features=20, out_features=40, bias=True)
    (4): ReLU()
    (5): Dropout(p=0.1, inplace=False)
    (6): Linear(in_features=40, out_features=60, bias=True)
    (7): ReLU()
    (8): Dropout(p=0.1, inplace=False)
    (9): Linear(in_features=60, out_features=30, bias=True)
    (10): ReLU()
    (11): Dropout(p=0.1, inplace=False)
    (12): Linear(in_features=30, out_features=2, bias=True)
  )
)",0.31814366579055786,0.8711005958640028,0.31740009784698486,0.8690851735015773
9,telescope_complex.pt,0.45,"DenseNeuralNet(
  (net): Sequential(
    (0): Linear(in_features=10, out_features=20, bias=True)
    (1): ReLU()
    (2): Dropout(p=0.1, inplace=False)
    (3): Linear(in_features=20, out_features=40, bias=True)
    (4): ReLU()
    (5): Dropout(p=0.1, inplace=False)
    (6): Linear(in_features=40, out_features=60, bias=True)
    (7): ReLU()
    (8): Dropout(p=0.1, inplace=False)
    (9): Linear(in_features=60, out_features=30, bias=True)
    (10): ReLU()
    (11): Dropout(p=0.1, inplace=False)
    (12): Linear(in_features=30, out_features=2, bias=True)
  )
)","DenseNeuralNet(
  (net): Sequential(
    (0): Linear(in_features=10, out_features=20, bias=True)
    (1): ReLU()
    (2): Dropout(p=0.1, inplace=False)
    (3): Linear(in_features=20, out_features=40, bias=True)
    (4): ReLU()
    (5): Dropout(p=0.1, inplace=False)
    (6): Linear(in_features=40, out_features=60, bias=True)
    (7): ReLU()
    (8): Dropout(p=0.1, inplace=False)
    (9): Linear(in_features=60, out_features=30, bias=True)
    (10): ReLU()
    (11): Dropout(p=0.1, inplace=False)
    (12): Linear(in_features=30, out_features=2, bias=True)
  )
)",0.33278027176856995,0.8615492464072906,0.3318418562412262,0.8643533123028391
10,telescope_complex.pt,0.5,"DenseNeuralNet(
  (net): Sequential(
    (0): Linear(in_features=10, out_features=20, bias=True)
    (1): ReLU()
    (2): Dropout(p=0.1, inplace=False)
    (3): Linear(in_features=20, out_features=40, bias=True)
    (4): ReLU()
    (5): Dropout(p=0.1, inplace=False)
    (6): Linear(in_features=40, out_features=60, bias=True)
    (7): ReLU()
    (8): Dropout(p=0.1, inplace=False)
    (9): Linear(in_features=60, out_features=30, bias=True)
    (10): ReLU()
    (11): Dropout(p=0.1, inplace=False)
    (12): Linear(in_features=30, out_features=2, bias=True)
  )
)","DenseNeuralNet(
  (net): Sequential(
    (0): Linear(in_features=10, out_features=20, bias=True)
    (1): ReLU()
    (2): Dropout(p=0.1, inplace=False)
    (3): Linear(in_features=20, out_features=40, bias=True)
    (4): ReLU()
    (5): Dropout(p=0.1, inplace=False)
    (6): Linear(in_features=40, out_features=60, bias=True)
    (7): ReLU()
    (8): Dropout(p=0.1, inplace=False)
    (9): Linear(in_features=60, out_features=30, bias=True)
    (10): ReLU()
    (11): Dropout(p=0.1, inplace=False)
    (12): Linear(in_features=30, out_features=2, bias=True)
  )
)",0.34695225954055786,0.8604977216964599,0.3459206819534302,0.8617245005257623
11,telescope_complex.pt,0.6,"DenseNeuralNet(
  (net): Sequential(
    (0): Linear(in_features=10, out_features=20, bias=True)
    (1): ReLU()
    (2): Dropout(p=0.1, inplace=False)
    (3): Linear(in_features=20, out_features=40, bias=True)
    (4): ReLU()
    (5): Dropout(p=0.1, inplace=False)
    (6): Linear(in_features=40, out_features=60, bias=True)
    (7): ReLU()
    (8): Dropout(p=0.1, inplace=False)
    (9): Linear(in_features=60, out_features=30, bias=True)
    (10): ReLU()
    (11): Dropout(p=0.1, inplace=False)
    (12): Linear(in_features=30, out_features=2, bias=True)
  )
)","DenseNeuralNet(
  (net): Sequential(
    (0): Linear(in_features=10, out_features=20, bias=True)
    (1): ReLU()
    (2): Dropout(p=0.1, inplace=False)
    (3): Linear(in_features=20, out_features=40, bias=True)
    (4): ReLU()
    (5): Dropout(p=0.1, inplace=False)
    (6): Linear(in_features=40, out_features=60, bias=True)
    (7): ReLU()
    (8): Dropout(p=0.1, inplace=False)
    (9): Linear(in_features=60, out_features=30, bias=True)
    (10): ReLU()
    (11): Dropout(p=0.1, inplace=False)
    (12): Linear(in_features=30, out_features=2, bias=True)
  )
)",0.4279974102973938,0.8413950227830354,0.42917996644973755,0.8414826498422713
12,telescope_complex.pt,0.7,"DenseNeuralNet(
  (net): Sequential(
    (0): Linear(in_features=10, out_features=20, bias=True)
    (1): ReLU()
    (2): Dropout(p=0.1, inplace=False)
    (3): Linear(in_features=20, out_features=40, bias=True)
    (4): ReLU()
    (5): Dropout(p=0.1, inplace=False)
    (6): Linear(in_features=40, out_features=60, bias=True)
    (7): ReLU()
    (8): Dropout(p=0.1, inplace=False)
    (9): Linear(in_features=60, out_features=30, bias=True)
    (10): ReLU()
    (11): Dropout(p=0.1, inplace=False)
    (12): Linear(in_features=30, out_features=2, bias=True)
  )
)","DenseNeuralNet(
  (net): Sequential(
    (0): Linear(in_features=10, out_features=20, bias=True)
    (1): ReLU()
    (2): Dropout(p=0.1, inplace=False)
    (3): Linear(in_features=20, out_features=40, bias=True)
    (4): ReLU()
    (5): Dropout(p=0.1, inplace=False)
    (6): Linear(in_features=40, out_features=60, bias=True)
    (7): ReLU()
    (8): Dropout(p=0.1, inplace=False)
    (9): Linear(in_features=60, out_features=30, bias=True)
    (10): ReLU()
    (11): Dropout(p=0.1, inplace=False)
    (12): Linear(in_features=30, out_features=2, bias=True)
  )
)",0.5415704846382141,0.7782159130739572,0.5452833771705627,0.7749737118822292
13,telescope_complex.pt,0.8,"DenseNeuralNet(
  (net): Sequential(
    (0): Linear(in_features=10, out_features=20, bias=True)
    (1): ReLU()
    (2): Dropout(p=0.1, inplace=False)
    (3): Linear(in_features=20, out_features=40, bias=True)
    (4): ReLU()
    (5): Dropout(p=0.1, inplace=False)
    (6): Linear(in_features=40, out_features=60, bias=True)
    (7): ReLU()
    (8): Dropout(p=0.1, inplace=False)
    (9): Linear(in_features=60, out_features=30, bias=True)
    (10): ReLU()
    (11): Dropout(p=0.1, inplace=False)
    (12): Linear(in_features=30, out_features=2, bias=True)
  )
)","DenseNeuralNet(
  (net): Sequential(
    (0): Linear(in_features=10, out_features=20, bias=True)
    (1): ReLU()
    (2): Dropout(p=0.1, inplace=False)
    (3): Linear(in_features=20, out_features=40, bias=True)
    (4): ReLU()
    (5): Dropout(p=0.1, inplace=False)
    (6): Linear(in_features=40, out_features=60, bias=True)
    (7): ReLU()
    (8): Dropout(p=0.1, inplace=False)
    (9): Linear(in_features=60, out_features=30, bias=True)
    (10): ReLU()
    (11): Dropout(p=0.1, inplace=False)
    (12): Linear(in_features=30, out_features=2, bias=True)
  )
)",0.6097912192344666,0.6812127584998248,0.6168357729911804,0.6606203995793901
14,telescope_complex.pt,0.9,"DenseNeuralNet(
  (net): Sequential(
    (0): Linear(in_features=10, out_features=20, bias=True)
    (1): ReLU()
    (2): Dropout(p=0.1, inplace=False)
    (3): Linear(in_features=20, out_features=40, bias=True)
    (4): ReLU()
    (5): Dropout(p=0.1, inplace=False)
    (6): Linear(in_features=40, out_features=60, bias=True)
    (7): ReLU()
    (8): Dropout(p=0.1, inplace=False)
    (9): Linear(in_features=60, out_features=30, bias=True)
    (10): ReLU()
    (11): Dropout(p=0.1, inplace=False)
    (12): Linear(in_features=30, out_features=2, bias=True)
  )
)","DenseNeuralNet(
  (net): Sequential(
    (0): Linear(in_features=10, out_features=20, bias=True)
    (1): ReLU()
    (2): Dropout(p=0.1, inplace=False)
    (3): Linear(in_features=20, out_features=40, bias=True)
    (4): ReLU()
    (5): Dropout(p=0.1, inplace=False)
    (6): Linear(in_features=40, out_features=60, bias=True)
    (7): ReLU()
    (8): Dropout(p=0.1, inplace=False)
    (9): Linear(in_features=60, out_features=30, bias=True)
    (10): ReLU()
    (11): Dropout(p=0.1, inplace=False)
    (12): Linear(in_features=30, out_features=2, bias=True)
  )
)",0.6374576091766357,0.6536978618997547,0.6446468234062195,0.6398527865404837
15,telescope_complex.pt,0.95,"DenseNeuralNet(
  (net): Sequential(
    (0): Linear(in_features=10, out_features=20, bias=True)
    (1): ReLU()
    (2): Dropout(p=0.1, inplace=False)
    (3): Linear(in_features=20, out_features=40, bias=True)
    (4): ReLU()
    (5): Dropout(p=0.1, inplace=False)
    (6): Linear(in_features=40, out_features=60, bias=True)
    (7): ReLU()
    (8): Dropout(p=0.1, inplace=False)
    (9): Linear(in_features=60, out_features=30, bias=True)
    (10): ReLU()
    (11): Dropout(p=0.1, inplace=False)
    (12): Linear(in_features=30, out_features=2, bias=True)
  )
)","DenseNeuralNet(
  (net): Sequential(
    (0): Linear(in_features=10, out_features=20, bias=True)
    (1): ReLU()
    (2): Dropout(p=0.1, inplace=False)
    (3): Linear(in_features=20, out_features=40, bias=True)
    (4): ReLU()
    (5): Dropout(p=0.1, inplace=False)
    (6): Linear(in_features=40, out_features=60, bias=True)
    (7): ReLU()
    (8): Dropout(p=0.1, inplace=False)
    (9): Linear(in_features=60, out_features=30, bias=True)
    (10): ReLU()
    (11): Dropout(p=0.1, inplace=False)
    (12): Linear(in_features=30, out_features=2, bias=True)
  )
)",0.6456623673439026,0.6536978618997547,0.6534734964370728,0.6398527865404837
16,telescope_complex.pt,0.97,"DenseNeuralNet(
  (net): Sequential(
    (0): Linear(in_features=10, out_features=20, bias=True)
    (1): ReLU()
    (2): Dropout(p=0.1, inplace=False)
    (3): Linear(in_features=20, out_features=40, bias=True)
    (4): ReLU()
    (5): Dropout(p=0.1, inplace=False)
    (6): Linear(in_features=40, out_features=60, bias=True)
    (7): ReLU()
    (8): Dropout(p=0.1, inplace=False)
    (9): Linear(in_features=60, out_features=30, bias=True)
    (10): ReLU()
    (11): Dropout(p=0.1, inplace=False)
    (12): Linear(in_features=30, out_features=2, bias=True)
  )
)","DenseNeuralNet(
  (net): Sequential(
    (0): Linear(in_features=10, out_features=20, bias=True)
    (1): ReLU()
    (2): Dropout(p=0.1, inplace=False)
    (3): Linear(in_features=20, out_features=40, bias=True)
    (4): ReLU()
    (5): Dropout(p=0.1, inplace=False)
    (6): Linear(in_features=40, out_features=60, bias=True)
    (7): ReLU()
    (8): Dropout(p=0.1, inplace=False)
    (9): Linear(in_features=60, out_features=30, bias=True)
    (10): ReLU()
    (11): Dropout(p=0.1, inplace=False)
    (12): Linear(in_features=30, out_features=2, bias=True)
  )
)",0.6468775272369385,0.6536978618997547,0.6540635228157043,0.6398527865404837
17,telescope_complex.pt,0.99,"DenseNeuralNet(
  (net): Sequential(
    (0): Linear(in_features=10, out_features=20, bias=True)
    (1): ReLU()
    (2): Dropout(p=0.1, inplace=False)
    (3): Linear(in_features=20, out_features=40, bias=True)
    (4): ReLU()
    (5): Dropout(p=0.1, inplace=False)
    (6): Linear(in_features=40, out_features=60, bias=True)
    (7): ReLU()
    (8): Dropout(p=0.1, inplace=False)
    (9): Linear(in_features=60, out_features=30, bias=True)
    (10): ReLU()
    (11): Dropout(p=0.1, inplace=False)
    (12): Linear(in_features=30, out_features=2, bias=True)
  )
)","DenseNeuralNet(
  (net): Sequential(
    (0): Linear(in_features=10, out_features=20, bias=True)
    (1): ReLU()
    (2): Dropout(p=0.1, inplace=False)
    (3): Linear(in_features=20, out_features=40, bias=True)
    (4): ReLU()
    (5): Dropout(p=0.1, inplace=False)
    (6): Linear(in_features=40, out_features=60, bias=True)
    (7): ReLU()
    (8): Dropout(p=0.1, inplace=False)
    (9): Linear(in_features=60, out_features=30, bias=True)
    (10): ReLU()
    (11): Dropout(p=0.1, inplace=False)
    (12): Linear(in_features=30, out_features=2, bias=True)
  )
)",0.6471455693244934,0.6536978618997547,0.6539744138717651,0.6398527865404837
