,model,quant_method,bin_method,precision,model_artifact,train_loss,train_acc,test_loss,test_acc
0,telescope_simple.pt,stochastic_rounding,uniform_range,16,"DenseNeuralNet(
  (net): Sequential(
    (0): Linear(in_features=10, out_features=10, bias=True)
    (1): ReLU()
    (2): Linear(in_features=10, out_features=2, bias=True)
  )
)",0.355099559,0.855327725,0.364995837,0.843059937
1,telescope_simple.pt,stochastic_rounding,uniform_range,12,"DenseNeuralNet(
  (net): Sequential(
    (0): Linear(in_features=10, out_features=10, bias=True)
    (1): ReLU()
    (2): Linear(in_features=10, out_features=2, bias=True)
  )
)",0.355263591,0.855502979,0.364688843,0.843059937
2,telescope_simple.pt,stochastic_rounding,uniform_range,10,"DenseNeuralNet(
  (net): Sequential(
    (0): Linear(in_features=10, out_features=10, bias=True)
    (1): ReLU()
    (2): Linear(in_features=10, out_features=2, bias=True)
  )
)",0.355216205,0.855590606,0.365251094,0.84384858
3,telescope_simple.pt,stochastic_rounding,uniform_range,8,"DenseNeuralNet(
  (net): Sequential(
    (0): Linear(in_features=10, out_features=10, bias=True)
    (1): ReLU()
    (2): Linear(in_features=10, out_features=2, bias=True)
  )
)",0.356133044,0.852874168,0.365416229,0.847003155
4,telescope_simple.pt,stochastic_rounding,uniform_range,6,"DenseNeuralNet(
  (net): Sequential(
    (0): Linear(in_features=10, out_features=10, bias=True)
    (1): ReLU()
    (2): Linear(in_features=10, out_features=2, bias=True)
  )
)",0.361861497,0.846302138,0.369565666,0.842008412
5,telescope_simple.pt,stochastic_rounding,uniform_range,4,"DenseNeuralNet(
  (net): Sequential(
    (0): Linear(in_features=10, out_features=10, bias=True)
    (1): ReLU()
    (2): Linear(in_features=10, out_features=2, bias=True)
  )
)",0.399129659,0.831317911,0.408905596,0.829390116
12,telescope_simple.pt,stochastic_rounding,prior_normal,16,"DenseNeuralNet(
  (net): Sequential(
    (0): Linear(in_features=10, out_features=10, bias=True)
    (1): ReLU()
    (2): Linear(in_features=10, out_features=2, bias=True)
  )
)",0.355314791,0.855327725,0.364878416,0.843059937
13,telescope_simple.pt,stochastic_rounding,prior_normal,12,"DenseNeuralNet(
  (net): Sequential(
    (0): Linear(in_features=10, out_features=10, bias=True)
    (1): ReLU()
    (2): Linear(in_features=10, out_features=2, bias=True)
  )
)",0.356214464,0.855941115,0.364900947,0.843585699
14,telescope_simple.pt,stochastic_rounding,prior_normal,10,"DenseNeuralNet(
  (net): Sequential(
    (0): Linear(in_features=10, out_features=10, bias=True)
    (1): ReLU()
    (2): Linear(in_features=10, out_features=2, bias=True)
  )
)",0.360598058,0.851647389,0.3681238,0.840168244
15,telescope_simple.pt,stochastic_rounding,prior_normal,8,"DenseNeuralNet(
  (net): Sequential(
    (0): Linear(in_features=10, out_features=10, bias=True)
    (1): ReLU()
    (2): Linear(in_features=10, out_features=2, bias=True)
  )
)",0.36536324,0.846126884,0.370079964,0.839642482
16,telescope_simple.pt,stochastic_rounding,prior_normal,6,"DenseNeuralNet(
  (net): Sequential(
    (0): Linear(in_features=10, out_features=10, bias=True)
    (1): ReLU()
    (2): Linear(in_features=10, out_features=2, bias=True)
  )
)",0.374478966,0.842709429,0.379953176,0.839116719
17,telescope_simple.pt,stochastic_rounding,prior_normal,4,"DenseNeuralNet(
  (net): Sequential(
    (0): Linear(in_features=10, out_features=10, bias=True)
    (1): ReLU()
    (2): Linear(in_features=10, out_features=2, bias=True)
  )
)",0.420117766,0.789957939,0.421064019,0.791798107
18,telescope_simple.pt,stochastic_rounding,histogram,16,"DenseNeuralNet(
  (net): Sequential(
    (0): Linear(in_features=10, out_features=10, bias=True)
    (1): ReLU()
    (2): Linear(in_features=10, out_features=2, bias=True)
  )
)",0.35537985,0.855327725,0.364949793,0.843059937
19,telescope_simple.pt,stochastic_rounding,histogram,12,"DenseNeuralNet(
  (net): Sequential(
    (0): Linear(in_features=10, out_features=10, bias=True)
    (1): ReLU()
    (2): Linear(in_features=10, out_features=2, bias=True)
  )
)",0.355754703,0.855415352,0.364919901,0.843059937
20,telescope_simple.pt,stochastic_rounding,histogram,10,"DenseNeuralNet(
  (net): Sequential(
    (0): Linear(in_features=10, out_features=10, bias=True)
    (1): ReLU()
    (2): Linear(in_features=10, out_features=2, bias=True)
  )
)",0.357163668,0.85576586,0.366279334,0.842534175
21,telescope_simple.pt,stochastic_rounding,histogram,8,"DenseNeuralNet(
  (net): Sequential(
    (0): Linear(in_features=10, out_features=10, bias=True)
    (1): ReLU()
    (2): Linear(in_features=10, out_features=2, bias=True)
  )
)",0.357198328,0.853487557,0.366495192,0.842271293
22,telescope_simple.pt,stochastic_rounding,histogram,6,"DenseNeuralNet(
  (net): Sequential(
    (0): Linear(in_features=10, out_features=10, bias=True)
    (1): ReLU()
    (2): Linear(in_features=10, out_features=2, bias=True)
  )
)",0.361450613,0.847178409,0.368508339,0.842008412
23,telescope_simple.pt,stochastic_rounding,histogram,4,"DenseNeuralNet(
  (net): Sequential(
    (0): Linear(in_features=10, out_features=10, bias=True)
    (1): ReLU()
    (2): Linear(in_features=10, out_features=2, bias=True)
  )
)",0.386008114,0.838766211,0.393630534,0.834121977
24,telescope_simple.pt,normal_rounding,uniform_range,16,"DenseNeuralNet(
  (net): Sequential(
    (0): Linear(in_features=10, out_features=10, bias=True)
    (1): ReLU()
    (2): Linear(in_features=10, out_features=2, bias=True)
  )
)",0.35611546,0.855327725,0.364869058,0.843059937
25,telescope_simple.pt,normal_rounding,uniform_range,12,"DenseNeuralNet(
  (net): Sequential(
    (0): Linear(in_features=10, out_features=10, bias=True)
    (1): ReLU()
    (2): Linear(in_features=10, out_features=2, bias=True)
  )
)",0.355230451,0.855327725,0.364959151,0.843059937
26,telescope_simple.pt,normal_rounding,uniform_range,10,"DenseNeuralNet(
  (net): Sequential(
    (0): Linear(in_features=10, out_features=10, bias=True)
    (1): ReLU()
    (2): Linear(in_features=10, out_features=2, bias=True)
  )
)",0.355290681,0.854714336,0.363923401,0.844900105
27,telescope_simple.pt,normal_rounding,uniform_range,8,"DenseNeuralNet(
  (net): Sequential(
    (0): Linear(in_features=10, out_features=10, bias=True)
    (1): ReLU()
    (2): Linear(in_features=10, out_features=2, bias=True)
  )
)",0.365282327,0.847090782,0.374047458,0.838853838
28,telescope_simple.pt,normal_rounding,uniform_range,6,"DenseNeuralNet(
  (net): Sequential(
    (0): Linear(in_features=10, out_features=10, bias=True)
    (1): ReLU()
    (2): Linear(in_features=10, out_features=2, bias=True)
  )
)",0.369387537,0.840956887,0.378508508,0.836487907
29,telescope_simple.pt,normal_rounding,uniform_range,4,"DenseNeuralNet(
  (net): Sequential(
    (0): Linear(in_features=10, out_features=10, bias=True)
    (1): ReLU()
    (2): Linear(in_features=10, out_features=2, bias=True)
  )
)",0.389305174,0.837364178,0.394957185,0.828338591
36,telescope_simple.pt,normal_rounding,prior_normal,16,"DenseNeuralNet(
  (net): Sequential(
    (0): Linear(in_features=10, out_features=10, bias=True)
    (1): ReLU()
    (2): Linear(in_features=10, out_features=2, bias=True)
  )
)",0.355124265,0.855327725,0.365227908,0.843059937
37,telescope_simple.pt,normal_rounding,prior_normal,12,"DenseNeuralNet(
  (net): Sequential(
    (0): Linear(in_features=10, out_features=10, bias=True)
    (1): ReLU()
    (2): Linear(in_features=10, out_features=2, bias=True)
  )
)",0.355743587,0.856116369,0.364783138,0.843585699
38,telescope_simple.pt,normal_rounding,prior_normal,10,"DenseNeuralNet(
  (net): Sequential(
    (0): Linear(in_features=10, out_features=10, bias=True)
    (1): ReLU()
    (2): Linear(in_features=10, out_features=2, bias=True)
  )
)",0.359699667,0.85191027,0.367361754,0.840956887
39,telescope_simple.pt,normal_rounding,prior_normal,8,"DenseNeuralNet(
  (net): Sequential(
    (0): Linear(in_features=10, out_features=10, bias=True)
    (1): ReLU()
    (2): Linear(in_features=10, out_features=2, bias=True)
  )
)",0.364792764,0.847266036,0.37054801,0.842271293
40,telescope_simple.pt,normal_rounding,prior_normal,6,"DenseNeuralNet(
  (net): Sequential(
    (0): Linear(in_features=10, out_features=10, bias=True)
    (1): ReLU()
    (2): Linear(in_features=10, out_features=2, bias=True)
  )
)",0.365620196,0.849281458,0.36739251,0.851997897
41,telescope_simple.pt,normal_rounding,prior_normal,4,"DenseNeuralNet(
  (net): Sequential(
    (0): Linear(in_features=10, out_features=10, bias=True)
    (1): ReLU()
    (2): Linear(in_features=10, out_features=2, bias=True)
  )
)",0.379543841,0.83552401,0.38035807,0.832281809
42,telescope_simple.pt,normal_rounding,histogram,16,"DenseNeuralNet(
  (net): Sequential(
    (0): Linear(in_features=10, out_features=10, bias=True)
    (1): ReLU()
    (2): Linear(in_features=10, out_features=2, bias=True)
  )
)",0.355373383,0.855327725,0.36484769,0.843059937
43,telescope_simple.pt,normal_rounding,histogram,12,"DenseNeuralNet(
  (net): Sequential(
    (0): Linear(in_features=10, out_features=10, bias=True)
    (1): ReLU()
    (2): Linear(in_features=10, out_features=2, bias=True)
  )
)",0.355249047,0.855415352,0.364791721,0.843059937
44,telescope_simple.pt,normal_rounding,histogram,10,"DenseNeuralNet(
  (net): Sequential(
    (0): Linear(in_features=10, out_features=10, bias=True)
    (1): ReLU()
    (2): Linear(in_features=10, out_features=2, bias=True)
  )
)",0.355613858,0.855590606,0.364844024,0.843059937
45,telescope_simple.pt,normal_rounding,histogram,8,"DenseNeuralNet(
  (net): Sequential(
    (0): Linear(in_features=10, out_features=10, bias=True)
    (1): ReLU()
    (2): Linear(in_features=10, out_features=2, bias=True)
  )
)",0.365741968,0.8468279,0.373681724,0.840168244
46,telescope_simple.pt,normal_rounding,histogram,6,"DenseNeuralNet(
  (net): Sequential(
    (0): Linear(in_features=10, out_features=10, bias=True)
    (1): ReLU()
    (2): Linear(in_features=10, out_features=2, bias=True)
  )
)",0.368073672,0.843059937,0.376222879,0.836750789
47,telescope_simple.pt,normal_rounding,histogram,4,"DenseNeuralNet(
  (net): Sequential(
    (0): Linear(in_features=10, out_features=10, bias=True)
    (1): ReLU()
    (2): Linear(in_features=10, out_features=2, bias=True)
  )
)",0.367037594,0.847528917,0.37153694,0.844111462
48,telescope_simple.pt,mid_rise,full_range,16,"DenseNeuralNet(
  (net): Sequential(
    (0): Linear(in_features=10, out_features=10, bias=True)
    (1): ReLU()
    (2): Linear(in_features=10, out_features=2, bias=True)
  )
)",0.35533914,0.855327725,0.365393132,0.843059937
49,telescope_simple.pt,mid_rise,full_range,12,"DenseNeuralNet(
  (net): Sequential(
    (0): Linear(in_features=10, out_features=10, bias=True)
    (1): ReLU()
    (2): Linear(in_features=10, out_features=2, bias=True)
  )
)",0.356488645,0.855678233,0.365952939,0.843059937
50,telescope_simple.pt,mid_rise,full_range,10,"DenseNeuralNet(
  (net): Sequential(
    (0): Linear(in_features=10, out_features=10, bias=True)
    (1): ReLU()
    (2): Linear(in_features=10, out_features=2, bias=True)
  )
)",0.355287224,0.854801963,0.364077568,0.845162986
51,telescope_simple.pt,mid_rise,full_range,8,"DenseNeuralNet(
  (net): Sequential(
    (0): Linear(in_features=10, out_features=10, bias=True)
    (1): ReLU()
    (2): Linear(in_features=10, out_features=2, bias=True)
  )
)",0.350200951,0.855327725,0.356960475,0.850157729
52,telescope_simple.pt,mid_rise,full_range,6,"DenseNeuralNet(
  (net): Sequential(
    (0): Linear(in_features=10, out_features=10, bias=True)
    (1): ReLU()
    (2): Linear(in_features=10, out_features=2, bias=True)
  )
)",0.383535743,0.836750789,0.392296195,0.828864353
53,telescope_simple.pt,mid_rise,full_range,4,"DenseNeuralNet(
  (net): Sequential(
    (0): Linear(in_features=10, out_features=10, bias=True)
    (1): ReLU()
    (2): Linear(in_features=10, out_features=2, bias=True)
  )
)",0.39367348,0.835436383,0.39848426,0.834647739
