,model,method,precision,model_artifact,train_loss,train_acc,test_loss,test_acc
0,telescope_complex.pt,no rounding,32,"DenseNeuralNet(
  (net): Sequential(
    (0): Linear(in_features=10, out_features=20, bias=True)
    (1): ReLU()
    (2): Dropout(p=0.1, inplace=False)
    (3): Linear(in_features=20, out_features=40, bias=True)
    (4): ReLU()
    (5): Dropout(p=0.1, inplace=False)
    (6): Linear(in_features=40, out_features=60, bias=True)
    (7): ReLU()
    (8): Dropout(p=0.1, inplace=False)
    (9): Linear(in_features=60, out_features=30, bias=True)
    (10): ReLU()
    (11): Dropout(p=0.1, inplace=False)
    (12): Linear(in_features=30, out_features=2, bias=True)
  )
)",0.30995503067970276,0.8703995793901157,0.32076752185821533,0.8669821240799159
1,telescope_complex.pt,rounding,16,"DenseNeuralNet(
  (net): Sequential(
    (0): Linear(in_features=10, out_features=20, bias=True)
    (1): ReLU()
    (2): Dropout(p=0.1, inplace=False)
    (3): Linear(in_features=20, out_features=40, bias=True)
    (4): ReLU()
    (5): Dropout(p=0.1, inplace=False)
    (6): Linear(in_features=40, out_features=60, bias=True)
    (7): ReLU()
    (8): Dropout(p=0.1, inplace=False)
    (9): Linear(in_features=60, out_features=30, bias=True)
    (10): ReLU()
    (11): Dropout(p=0.1, inplace=False)
    (12): Linear(in_features=30, out_features=2, bias=True)
  )
)",0.3096269369125366,0.8703995793901157,0.321065753698349,0.8669821240799159
2,telescope_complex.pt,rounding,12,"DenseNeuralNet(
  (net): Sequential(
    (0): Linear(in_features=10, out_features=20, bias=True)
    (1): ReLU()
    (2): Dropout(p=0.1, inplace=False)
    (3): Linear(in_features=20, out_features=40, bias=True)
    (4): ReLU()
    (5): Dropout(p=0.1, inplace=False)
    (6): Linear(in_features=40, out_features=60, bias=True)
    (7): ReLU()
    (8): Dropout(p=0.1, inplace=False)
    (9): Linear(in_features=60, out_features=30, bias=True)
    (10): ReLU()
    (11): Dropout(p=0.1, inplace=False)
    (12): Linear(in_features=30, out_features=2, bias=True)
  )
)",0.3097207844257355,0.8703995793901157,0.320979505777359,0.8669821240799159
3,telescope_complex.pt,rounding,8,"DenseNeuralNet(
  (net): Sequential(
    (0): Linear(in_features=10, out_features=20, bias=True)
    (1): ReLU()
    (2): Dropout(p=0.1, inplace=False)
    (3): Linear(in_features=20, out_features=40, bias=True)
    (4): ReLU()
    (5): Dropout(p=0.1, inplace=False)
    (6): Linear(in_features=40, out_features=60, bias=True)
    (7): ReLU()
    (8): Dropout(p=0.1, inplace=False)
    (9): Linear(in_features=60, out_features=30, bias=True)
    (10): ReLU()
    (11): Dropout(p=0.1, inplace=False)
    (12): Linear(in_features=30, out_features=2, bias=True)
  )
)",0.30981677770614624,0.8703995793901157,0.32121244072914124,0.8669821240799159
4,telescope_complex.pt,rounding,4,"DenseNeuralNet(
  (net): Sequential(
    (0): Linear(in_features=10, out_features=20, bias=True)
    (1): ReLU()
    (2): Dropout(p=0.1, inplace=False)
    (3): Linear(in_features=20, out_features=40, bias=True)
    (4): ReLU()
    (5): Dropout(p=0.1, inplace=False)
    (6): Linear(in_features=40, out_features=60, bias=True)
    (7): ReLU()
    (8): Dropout(p=0.1, inplace=False)
    (9): Linear(in_features=60, out_features=30, bias=True)
    (10): ReLU()
    (11): Dropout(p=0.1, inplace=False)
    (12): Linear(in_features=30, out_features=2, bias=True)
  )
)",0.3108098804950714,0.8703995793901157,0.3211019039154053,0.8669821240799159
5,telescope_complex.pt,rounding,2,"DenseNeuralNet(
  (net): Sequential(
    (0): Linear(in_features=10, out_features=20, bias=True)
    (1): ReLU()
    (2): Dropout(p=0.1, inplace=False)
    (3): Linear(in_features=20, out_features=40, bias=True)
    (4): ReLU()
    (5): Dropout(p=0.1, inplace=False)
    (6): Linear(in_features=40, out_features=60, bias=True)
    (7): ReLU()
    (8): Dropout(p=0.1, inplace=False)
    (9): Linear(in_features=60, out_features=30, bias=True)
    (10): ReLU()
    (11): Dropout(p=0.1, inplace=False)
    (12): Linear(in_features=30, out_features=2, bias=True)
  )
)",0.31068697571754456,0.8695233087977567,0.3215603828430176,0.8672450052576236
6,telescope_complex.pt,rounding,1,"DenseNeuralNet(
  (net): Sequential(
    (0): Linear(in_features=10, out_features=20, bias=True)
    (1): ReLU()
    (2): Dropout(p=0.1, inplace=False)
    (3): Linear(in_features=20, out_features=40, bias=True)
    (4): ReLU()
    (5): Dropout(p=0.1, inplace=False)
    (6): Linear(in_features=40, out_features=60, bias=True)
    (7): ReLU()
    (8): Dropout(p=0.1, inplace=False)
    (9): Linear(in_features=60, out_features=30, bias=True)
    (10): ReLU()
    (11): Dropout(p=0.1, inplace=False)
    (12): Linear(in_features=30, out_features=2, bias=True)
  )
)",0.3203876316547394,0.8640904311251314,0.32995861768722534,0.8617245005257623
7,telescope_complex.pt,rounding,0,"DenseNeuralNet(
  (net): Sequential(
    (0): Linear(in_features=10, out_features=20, bias=True)
    (1): ReLU()
    (2): Dropout(p=0.1, inplace=False)
    (3): Linear(in_features=20, out_features=40, bias=True)
    (4): ReLU()
    (5): Dropout(p=0.1, inplace=False)
    (6): Linear(in_features=40, out_features=60, bias=True)
    (7): ReLU()
    (8): Dropout(p=0.1, inplace=False)
    (9): Linear(in_features=60, out_features=30, bias=True)
    (10): ReLU()
    (11): Dropout(p=0.1, inplace=False)
    (12): Linear(in_features=30, out_features=2, bias=True)
  )
)",0.6931458711624146,0.34630213810024535,0.6931461691856384,0.3601472134595163
8,telescope_complex.pt,mid-rise,16,"DenseNeuralNet(
  (net): Sequential(
    (0): Linear(in_features=10, out_features=20, bias=True)
    (1): ReLU()
    (2): Dropout(p=0.1, inplace=False)
    (3): Linear(in_features=20, out_features=40, bias=True)
    (4): ReLU()
    (5): Dropout(p=0.1, inplace=False)
    (6): Linear(in_features=40, out_features=60, bias=True)
    (7): ReLU()
    (8): Dropout(p=0.1, inplace=False)
    (9): Linear(in_features=60, out_features=30, bias=True)
    (10): ReLU()
    (11): Dropout(p=0.1, inplace=False)
    (12): Linear(in_features=30, out_features=2, bias=True)
  )
)",3422.8310546875,0.34630213810024535,3259.19482421875,0.3601472134595163
9,telescope_complex.pt,mid-rise,12,"DenseNeuralNet(
  (net): Sequential(
    (0): Linear(in_features=10, out_features=20, bias=True)
    (1): ReLU()
    (2): Dropout(p=0.1, inplace=False)
    (3): Linear(in_features=20, out_features=40, bias=True)
    (4): ReLU()
    (5): Dropout(p=0.1, inplace=False)
    (6): Linear(in_features=40, out_features=60, bias=True)
    (7): ReLU()
    (8): Dropout(p=0.1, inplace=False)
    (9): Linear(in_features=60, out_features=30, bias=True)
    (10): ReLU()
    (11): Dropout(p=0.1, inplace=False)
    (12): Linear(in_features=30, out_features=2, bias=True)
  )
)",3423.92236328125,0.34630213810024535,3254.708740234375,0.3601472134595163
10,telescope_complex.pt,mid-rise,8,"DenseNeuralNet(
  (net): Sequential(
    (0): Linear(in_features=10, out_features=20, bias=True)
    (1): ReLU()
    (2): Dropout(p=0.1, inplace=False)
    (3): Linear(in_features=20, out_features=40, bias=True)
    (4): ReLU()
    (5): Dropout(p=0.1, inplace=False)
    (6): Linear(in_features=40, out_features=60, bias=True)
    (7): ReLU()
    (8): Dropout(p=0.1, inplace=False)
    (9): Linear(in_features=60, out_features=30, bias=True)
    (10): ReLU()
    (11): Dropout(p=0.1, inplace=False)
    (12): Linear(in_features=30, out_features=2, bias=True)
  )
)",3387.457763671875,0.34630213810024535,3214.435302734375,0.3601472134595163
11,telescope_complex.pt,mid-rise,4,"DenseNeuralNet(
  (net): Sequential(
    (0): Linear(in_features=10, out_features=20, bias=True)
    (1): ReLU()
    (2): Dropout(p=0.1, inplace=False)
    (3): Linear(in_features=20, out_features=40, bias=True)
    (4): ReLU()
    (5): Dropout(p=0.1, inplace=False)
    (6): Linear(in_features=40, out_features=60, bias=True)
    (7): ReLU()
    (8): Dropout(p=0.1, inplace=False)
    (9): Linear(in_features=60, out_features=30, bias=True)
    (10): ReLU()
    (11): Dropout(p=0.1, inplace=False)
    (12): Linear(in_features=30, out_features=2, bias=True)
  )
)",2687.8837890625,0.34630213810024535,2560.12451171875,0.3601472134595163
12,telescope_complex.pt,mid-rise,2,"DenseNeuralNet(
  (net): Sequential(
    (0): Linear(in_features=10, out_features=20, bias=True)
    (1): ReLU()
    (2): Dropout(p=0.1, inplace=False)
    (3): Linear(in_features=20, out_features=40, bias=True)
    (4): ReLU()
    (5): Dropout(p=0.1, inplace=False)
    (6): Linear(in_features=40, out_features=60, bias=True)
    (7): ReLU()
    (8): Dropout(p=0.1, inplace=False)
    (9): Linear(in_features=60, out_features=30, bias=True)
    (10): ReLU()
    (11): Dropout(p=0.1, inplace=False)
    (12): Linear(in_features=30, out_features=2, bias=True)
  )
)",1391.2462158203125,0.34630213810024535,1334.250244140625,0.3601472134595163
13,telescope_complex.pt,mid-rise,1,"DenseNeuralNet(
  (net): Sequential(
    (0): Linear(in_features=10, out_features=20, bias=True)
    (1): ReLU()
    (2): Dropout(p=0.1, inplace=False)
    (3): Linear(in_features=20, out_features=40, bias=True)
    (4): ReLU()
    (5): Dropout(p=0.1, inplace=False)
    (6): Linear(in_features=40, out_features=60, bias=True)
    (7): ReLU()
    (8): Dropout(p=0.1, inplace=False)
    (9): Linear(in_features=60, out_features=30, bias=True)
    (10): ReLU()
    (11): Dropout(p=0.1, inplace=False)
    (12): Linear(in_features=30, out_features=2, bias=True)
  )
)",287.84613037109375,0.34630213810024535,278.312255859375,0.3601472134595163
14,telescope_complex.pt,mid-rise,0,"DenseNeuralNet(
  (net): Sequential(
    (0): Linear(in_features=10, out_features=20, bias=True)
    (1): ReLU()
    (2): Dropout(p=0.1, inplace=False)
    (3): Linear(in_features=20, out_features=40, bias=True)
    (4): ReLU()
    (5): Dropout(p=0.1, inplace=False)
    (6): Linear(in_features=40, out_features=60, bias=True)
    (7): ReLU()
    (8): Dropout(p=0.1, inplace=False)
    (9): Linear(in_features=60, out_features=30, bias=True)
    (10): ReLU()
    (11): Dropout(p=0.1, inplace=False)
    (12): Linear(in_features=30, out_features=2, bias=True)
  )
)",38.816688537597656,0.6331931300385559,38.62616729736328,0.6324921135646687
15,telescope_complex.pt,stochastic,16,"DenseNeuralNet(
  (net): Sequential(
    (0): Linear(in_features=10, out_features=20, bias=True)
    (1): ReLU()
    (2): Dropout(p=0.1, inplace=False)
    (3): Linear(in_features=20, out_features=40, bias=True)
    (4): ReLU()
    (5): Dropout(p=0.1, inplace=False)
    (6): Linear(in_features=40, out_features=60, bias=True)
    (7): ReLU()
    (8): Dropout(p=0.1, inplace=False)
    (9): Linear(in_features=60, out_features=30, bias=True)
    (10): ReLU()
    (11): Dropout(p=0.1, inplace=False)
    (12): Linear(in_features=30, out_features=2, bias=True)
  )
)",0.3096221685409546,0.8703995793901157,0.3208954930305481,0.8669821240799159
16,telescope_complex.pt,stochastic,12,"DenseNeuralNet(
  (net): Sequential(
    (0): Linear(in_features=10, out_features=20, bias=True)
    (1): ReLU()
    (2): Dropout(p=0.1, inplace=False)
    (3): Linear(in_features=20, out_features=40, bias=True)
    (4): ReLU()
    (5): Dropout(p=0.1, inplace=False)
    (6): Linear(in_features=40, out_features=60, bias=True)
    (7): ReLU()
    (8): Dropout(p=0.1, inplace=False)
    (9): Linear(in_features=60, out_features=30, bias=True)
    (10): ReLU()
    (11): Dropout(p=0.1, inplace=False)
    (12): Linear(in_features=30, out_features=2, bias=True)
  )
)",0.30966153740882874,0.8703995793901157,0.32075098156929016,0.8669821240799159
17,telescope_complex.pt,stochastic,8,"DenseNeuralNet(
  (net): Sequential(
    (0): Linear(in_features=10, out_features=20, bias=True)
    (1): ReLU()
    (2): Dropout(p=0.1, inplace=False)
    (3): Linear(in_features=20, out_features=40, bias=True)
    (4): ReLU()
    (5): Dropout(p=0.1, inplace=False)
    (6): Linear(in_features=40, out_features=60, bias=True)
    (7): ReLU()
    (8): Dropout(p=0.1, inplace=False)
    (9): Linear(in_features=60, out_features=30, bias=True)
    (10): ReLU()
    (11): Dropout(p=0.1, inplace=False)
    (12): Linear(in_features=30, out_features=2, bias=True)
  )
)",0.3098679780960083,0.8703995793901157,0.3210223615169525,0.8669821240799159
18,telescope_complex.pt,stochastic,4,"DenseNeuralNet(
  (net): Sequential(
    (0): Linear(in_features=10, out_features=20, bias=True)
    (1): ReLU()
    (2): Dropout(p=0.1, inplace=False)
    (3): Linear(in_features=20, out_features=40, bias=True)
    (4): ReLU()
    (5): Dropout(p=0.1, inplace=False)
    (6): Linear(in_features=40, out_features=60, bias=True)
    (7): ReLU()
    (8): Dropout(p=0.1, inplace=False)
    (9): Linear(in_features=60, out_features=30, bias=True)
    (10): ReLU()
    (11): Dropout(p=0.1, inplace=False)
    (12): Linear(in_features=30, out_features=2, bias=True)
  )
)",0.30982065200805664,0.8703995793901157,0.3211870491504669,0.8669821240799159
19,telescope_complex.pt,stochastic,2,"DenseNeuralNet(
  (net): Sequential(
    (0): Linear(in_features=10, out_features=20, bias=True)
    (1): ReLU()
    (2): Dropout(p=0.1, inplace=False)
    (3): Linear(in_features=20, out_features=40, bias=True)
    (4): ReLU()
    (5): Dropout(p=0.1, inplace=False)
    (6): Linear(in_features=40, out_features=60, bias=True)
    (7): ReLU()
    (8): Dropout(p=0.1, inplace=False)
    (9): Linear(in_features=60, out_features=30, bias=True)
    (10): ReLU()
    (11): Dropout(p=0.1, inplace=False)
    (12): Linear(in_features=30, out_features=2, bias=True)
  )
)",0.31076857447624207,0.8691728005608131,0.32242316007614136,0.8651419558359621
20,telescope_complex.pt,stochastic,1,"DenseNeuralNet(
  (net): Sequential(
    (0): Linear(in_features=10, out_features=20, bias=True)
    (1): ReLU()
    (2): Dropout(p=0.1, inplace=False)
    (3): Linear(in_features=20, out_features=40, bias=True)
    (4): ReLU()
    (5): Dropout(p=0.1, inplace=False)
    (6): Linear(in_features=40, out_features=60, bias=True)
    (7): ReLU()
    (8): Dropout(p=0.1, inplace=False)
    (9): Linear(in_features=60, out_features=30, bias=True)
    (10): ReLU()
    (11): Dropout(p=0.1, inplace=False)
    (12): Linear(in_features=30, out_features=2, bias=True)
  )
)",0.3157794773578644,0.8703995793901157,0.3212122321128845,0.8675078864353313
21,telescope_complex.pt,stochastic,0,"DenseNeuralNet(
  (net): Sequential(
    (0): Linear(in_features=10, out_features=20, bias=True)
    (1): ReLU()
    (2): Dropout(p=0.1, inplace=False)
    (3): Linear(in_features=20, out_features=40, bias=True)
    (4): ReLU()
    (5): Dropout(p=0.1, inplace=False)
    (6): Linear(in_features=40, out_features=60, bias=True)
    (7): ReLU()
    (8): Dropout(p=0.1, inplace=False)
    (9): Linear(in_features=60, out_features=30, bias=True)
    (10): ReLU()
    (11): Dropout(p=0.1, inplace=False)
    (12): Linear(in_features=30, out_features=2, bias=True)
  )
)",2.003154993057251,0.5431125131440588,1.933767318725586,0.5420609884332281
