,model,quant_method,bin_method,precision,model_artifact,train_loss,train_acc,test_loss,test_acc
0,telescope_complex.pt,stochastic_rounding,uniform_range,16,"DenseNeuralNet(
  (net): Sequential(
    (0): Linear(in_features=10, out_features=20, bias=True)
    (1): ReLU()
    (2): Dropout(p=0.1, inplace=False)
    (3): Linear(in_features=20, out_features=40, bias=True)
    (4): ReLU()
    (5): Dropout(p=0.1, inplace=False)
    (6): Linear(in_features=40, out_features=60, bias=True)
    (7): ReLU()
    (8): Dropout(p=0.1, inplace=False)
    (9): Linear(in_features=60, out_features=30, bias=True)
    (10): ReLU()
    (11): Dropout(p=0.1, inplace=False)
    (12): Linear(in_features=30, out_features=2, bias=True)
  )
)",0.31023913621902466,0.8703995793901157,0.3209270238876343,0.8669821240799159
1,telescope_complex.pt,stochastic_rounding,uniform_range,12,"DenseNeuralNet(
  (net): Sequential(
    (0): Linear(in_features=10, out_features=20, bias=True)
    (1): ReLU()
    (2): Dropout(p=0.1, inplace=False)
    (3): Linear(in_features=20, out_features=40, bias=True)
    (4): ReLU()
    (5): Dropout(p=0.1, inplace=False)
    (6): Linear(in_features=40, out_features=60, bias=True)
    (7): ReLU()
    (8): Dropout(p=0.1, inplace=False)
    (9): Linear(in_features=60, out_features=30, bias=True)
    (10): ReLU()
    (11): Dropout(p=0.1, inplace=False)
    (12): Linear(in_features=30, out_features=2, bias=True)
  )
)",0.31007739901542664,0.8703119523308798,0.32098469138145447,0.8669821240799159
2,telescope_complex.pt,stochastic_rounding,uniform_range,10,"DenseNeuralNet(
  (net): Sequential(
    (0): Linear(in_features=10, out_features=20, bias=True)
    (1): ReLU()
    (2): Dropout(p=0.1, inplace=False)
    (3): Linear(in_features=20, out_features=40, bias=True)
    (4): ReLU()
    (5): Dropout(p=0.1, inplace=False)
    (6): Linear(in_features=40, out_features=60, bias=True)
    (7): ReLU()
    (8): Dropout(p=0.1, inplace=False)
    (9): Linear(in_features=60, out_features=30, bias=True)
    (10): ReLU()
    (11): Dropout(p=0.1, inplace=False)
    (12): Linear(in_features=30, out_features=2, bias=True)
  )
)",0.309658408164978,0.8702243252716438,0.320779412984848,0.8672450052576236
3,telescope_complex.pt,stochastic_rounding,uniform_range,8,"DenseNeuralNet(
  (net): Sequential(
    (0): Linear(in_features=10, out_features=20, bias=True)
    (1): ReLU()
    (2): Dropout(p=0.1, inplace=False)
    (3): Linear(in_features=20, out_features=40, bias=True)
    (4): ReLU()
    (5): Dropout(p=0.1, inplace=False)
    (6): Linear(in_features=40, out_features=60, bias=True)
    (7): ReLU()
    (8): Dropout(p=0.1, inplace=False)
    (9): Linear(in_features=60, out_features=30, bias=True)
    (10): ReLU()
    (11): Dropout(p=0.1, inplace=False)
    (12): Linear(in_features=30, out_features=2, bias=True)
  )
)",0.30932146310806274,0.870136698212408,0.3208561837673187,0.8675078864353313
4,telescope_complex.pt,stochastic_rounding,uniform_range,6,"DenseNeuralNet(
  (net): Sequential(
    (0): Linear(in_features=10, out_features=20, bias=True)
    (1): ReLU()
    (2): Dropout(p=0.1, inplace=False)
    (3): Linear(in_features=20, out_features=40, bias=True)
    (4): ReLU()
    (5): Dropout(p=0.1, inplace=False)
    (6): Linear(in_features=40, out_features=60, bias=True)
    (7): ReLU()
    (8): Dropout(p=0.1, inplace=False)
    (9): Linear(in_features=60, out_features=30, bias=True)
    (10): ReLU()
    (11): Dropout(p=0.1, inplace=False)
    (12): Linear(in_features=30, out_features=2, bias=True)
  )
)",0.3128534257411957,0.8696985629162285,0.3233935534954071,0.8672450052576236
5,telescope_complex.pt,stochastic_rounding,uniform_range,4,"DenseNeuralNet(
  (net): Sequential(
    (0): Linear(in_features=10, out_features=20, bias=True)
    (1): ReLU()
    (2): Dropout(p=0.1, inplace=False)
    (3): Linear(in_features=20, out_features=40, bias=True)
    (4): ReLU()
    (5): Dropout(p=0.1, inplace=False)
    (6): Linear(in_features=40, out_features=60, bias=True)
    (7): ReLU()
    (8): Dropout(p=0.1, inplace=False)
    (9): Linear(in_features=60, out_features=30, bias=True)
    (10): ReLU()
    (11): Dropout(p=0.1, inplace=False)
    (12): Linear(in_features=30, out_features=2, bias=True)
  )
)",0.3243608772754669,0.8647038205397827,0.32877668738365173,0.8572555205047319
6,telescope_complex.pt,stochastic_rounding,uniform_range_IQR,16,"DenseNeuralNet(
  (net): Sequential(
    (0): Linear(in_features=10, out_features=20, bias=True)
    (1): ReLU()
    (2): Dropout(p=0.1, inplace=False)
    (3): Linear(in_features=20, out_features=40, bias=True)
    (4): ReLU()
    (5): Dropout(p=0.1, inplace=False)
    (6): Linear(in_features=40, out_features=60, bias=True)
    (7): ReLU()
    (8): Dropout(p=0.1, inplace=False)
    (9): Linear(in_features=60, out_features=30, bias=True)
    (10): ReLU()
    (11): Dropout(p=0.1, inplace=False)
    (12): Linear(in_features=30, out_features=2, bias=True)
  )
)",0.3229631185531616,0.8661934805467929,0.33386939764022827,0.8583070452155626
7,telescope_complex.pt,stochastic_rounding,uniform_range_IQR,12,"DenseNeuralNet(
  (net): Sequential(
    (0): Linear(in_features=10, out_features=20, bias=True)
    (1): ReLU()
    (2): Dropout(p=0.1, inplace=False)
    (3): Linear(in_features=20, out_features=40, bias=True)
    (4): ReLU()
    (5): Dropout(p=0.1, inplace=False)
    (6): Linear(in_features=40, out_features=60, bias=True)
    (7): ReLU()
    (8): Dropout(p=0.1, inplace=False)
    (9): Linear(in_features=60, out_features=30, bias=True)
    (10): ReLU()
    (11): Dropout(p=0.1, inplace=False)
    (12): Linear(in_features=30, out_features=2, bias=True)
  )
)",0.32334935665130615,0.8662811076060287,0.33368176221847534,0.8583070452155626
8,telescope_complex.pt,stochastic_rounding,uniform_range_IQR,10,"DenseNeuralNet(
  (net): Sequential(
    (0): Linear(in_features=10, out_features=20, bias=True)
    (1): ReLU()
    (2): Dropout(p=0.1, inplace=False)
    (3): Linear(in_features=20, out_features=40, bias=True)
    (4): ReLU()
    (5): Dropout(p=0.1, inplace=False)
    (6): Linear(in_features=40, out_features=60, bias=True)
    (7): ReLU()
    (8): Dropout(p=0.1, inplace=False)
    (9): Linear(in_features=60, out_features=30, bias=True)
    (10): ReLU()
    (11): Dropout(p=0.1, inplace=False)
    (12): Linear(in_features=30, out_features=2, bias=True)
  )
)",0.3228932023048401,0.866105853487557,0.3338969945907593,0.8585699263932702
9,telescope_complex.pt,stochastic_rounding,uniform_range_IQR,8,"DenseNeuralNet(
  (net): Sequential(
    (0): Linear(in_features=10, out_features=20, bias=True)
    (1): ReLU()
    (2): Dropout(p=0.1, inplace=False)
    (3): Linear(in_features=20, out_features=40, bias=True)
    (4): ReLU()
    (5): Dropout(p=0.1, inplace=False)
    (6): Linear(in_features=40, out_features=60, bias=True)
    (7): ReLU()
    (8): Dropout(p=0.1, inplace=False)
    (9): Linear(in_features=60, out_features=30, bias=True)
    (10): ReLU()
    (11): Dropout(p=0.1, inplace=False)
    (12): Linear(in_features=30, out_features=2, bias=True)
  )
)",0.3228010833263397,0.8657553452506134,0.333853542804718,0.8583070452155626
10,telescope_complex.pt,stochastic_rounding,uniform_range_IQR,6,"DenseNeuralNet(
  (net): Sequential(
    (0): Linear(in_features=10, out_features=20, bias=True)
    (1): ReLU()
    (2): Dropout(p=0.1, inplace=False)
    (3): Linear(in_features=20, out_features=40, bias=True)
    (4): ReLU()
    (5): Dropout(p=0.1, inplace=False)
    (6): Linear(in_features=40, out_features=60, bias=True)
    (7): ReLU()
    (8): Dropout(p=0.1, inplace=False)
    (9): Linear(in_features=60, out_features=30, bias=True)
    (10): ReLU()
    (11): Dropout(p=0.1, inplace=False)
    (12): Linear(in_features=30, out_features=2, bias=True)
  )
)",0.3248441219329834,0.8620750087627059,0.3365195095539093,0.8572555205047319
11,telescope_complex.pt,stochastic_rounding,uniform_range_IQR,4,"DenseNeuralNet(
  (net): Sequential(
    (0): Linear(in_features=10, out_features=20, bias=True)
    (1): ReLU()
    (2): Dropout(p=0.1, inplace=False)
    (3): Linear(in_features=20, out_features=40, bias=True)
    (4): ReLU()
    (5): Dropout(p=0.1, inplace=False)
    (6): Linear(in_features=40, out_features=60, bias=True)
    (7): ReLU()
    (8): Dropout(p=0.1, inplace=False)
    (9): Linear(in_features=60, out_features=30, bias=True)
    (10): ReLU()
    (11): Dropout(p=0.1, inplace=False)
    (12): Linear(in_features=30, out_features=2, bias=True)
  )
)",0.32618841528892517,0.861198738170347,0.33563369512557983,0.8572555205047319
12,telescope_complex.pt,stochastic_rounding,prior_normal,16,"DenseNeuralNet(
  (net): Sequential(
    (0): Linear(in_features=10, out_features=20, bias=True)
    (1): ReLU()
    (2): Dropout(p=0.1, inplace=False)
    (3): Linear(in_features=20, out_features=40, bias=True)
    (4): ReLU()
    (5): Dropout(p=0.1, inplace=False)
    (6): Linear(in_features=40, out_features=60, bias=True)
    (7): ReLU()
    (8): Dropout(p=0.1, inplace=False)
    (9): Linear(in_features=60, out_features=30, bias=True)
    (10): ReLU()
    (11): Dropout(p=0.1, inplace=False)
    (12): Linear(in_features=30, out_features=2, bias=True)
  )
)",0.3096698820590973,0.8703995793901157,0.32069042325019836,0.8669821240799159
13,telescope_complex.pt,stochastic_rounding,prior_normal,12,"DenseNeuralNet(
  (net): Sequential(
    (0): Linear(in_features=10, out_features=20, bias=True)
    (1): ReLU()
    (2): Dropout(p=0.1, inplace=False)
    (3): Linear(in_features=20, out_features=40, bias=True)
    (4): ReLU()
    (5): Dropout(p=0.1, inplace=False)
    (6): Linear(in_features=40, out_features=60, bias=True)
    (7): ReLU()
    (8): Dropout(p=0.1, inplace=False)
    (9): Linear(in_features=60, out_features=30, bias=True)
    (10): ReLU()
    (11): Dropout(p=0.1, inplace=False)
    (12): Linear(in_features=30, out_features=2, bias=True)
  )
)",0.30984875559806824,0.870136698212408,0.32086530327796936,0.8669821240799159
14,telescope_complex.pt,stochastic_rounding,prior_normal,10,"DenseNeuralNet(
  (net): Sequential(
    (0): Linear(in_features=10, out_features=20, bias=True)
    (1): ReLU()
    (2): Dropout(p=0.1, inplace=False)
    (3): Linear(in_features=20, out_features=40, bias=True)
    (4): ReLU()
    (5): Dropout(p=0.1, inplace=False)
    (6): Linear(in_features=40, out_features=60, bias=True)
    (7): ReLU()
    (8): Dropout(p=0.1, inplace=False)
    (9): Linear(in_features=60, out_features=30, bias=True)
    (10): ReLU()
    (11): Dropout(p=0.1, inplace=False)
    (12): Linear(in_features=30, out_features=2, bias=True)
  )
)",0.31196802854537964,0.8695233087977567,0.32418036460876465,0.8656677181913774
15,telescope_complex.pt,stochastic_rounding,prior_normal,8,"DenseNeuralNet(
  (net): Sequential(
    (0): Linear(in_features=10, out_features=20, bias=True)
    (1): ReLU()
    (2): Dropout(p=0.1, inplace=False)
    (3): Linear(in_features=20, out_features=40, bias=True)
    (4): ReLU()
    (5): Dropout(p=0.1, inplace=False)
    (6): Linear(in_features=40, out_features=60, bias=True)
    (7): ReLU()
    (8): Dropout(p=0.1, inplace=False)
    (9): Linear(in_features=60, out_features=30, bias=True)
    (10): ReLU()
    (11): Dropout(p=0.1, inplace=False)
    (12): Linear(in_features=30, out_features=2, bias=True)
  )
)",0.31453847885131836,0.867683140553803,0.3275435268878937,0.8633017875920084
16,telescope_complex.pt,stochastic_rounding,prior_normal,6,"DenseNeuralNet(
  (net): Sequential(
    (0): Linear(in_features=10, out_features=20, bias=True)
    (1): ReLU()
    (2): Dropout(p=0.1, inplace=False)
    (3): Linear(in_features=20, out_features=40, bias=True)
    (4): ReLU()
    (5): Dropout(p=0.1, inplace=False)
    (6): Linear(in_features=40, out_features=60, bias=True)
    (7): ReLU()
    (8): Dropout(p=0.1, inplace=False)
    (9): Linear(in_features=60, out_features=30, bias=True)
    (10): ReLU()
    (11): Dropout(p=0.1, inplace=False)
    (12): Linear(in_features=30, out_features=2, bias=True)
  )
)",0.3337876498699188,0.8610234840518752,0.3518034815788269,0.8546267087276551
17,telescope_complex.pt,stochastic_rounding,prior_normal,4,"DenseNeuralNet(
  (net): Sequential(
    (0): Linear(in_features=10, out_features=20, bias=True)
    (1): ReLU()
    (2): Dropout(p=0.1, inplace=False)
    (3): Linear(in_features=20, out_features=40, bias=True)
    (4): ReLU()
    (5): Dropout(p=0.1, inplace=False)
    (6): Linear(in_features=40, out_features=60, bias=True)
    (7): ReLU()
    (8): Dropout(p=0.1, inplace=False)
    (9): Linear(in_features=60, out_features=30, bias=True)
    (10): ReLU()
    (11): Dropout(p=0.1, inplace=False)
    (12): Linear(in_features=30, out_features=2, bias=True)
  )
)",0.34947049617767334,0.8519102698913424,0.3714432120323181,0.8404311251314406
18,telescope_complex.pt,stochastic_rounding,histogram,16,"DenseNeuralNet(
  (net): Sequential(
    (0): Linear(in_features=10, out_features=20, bias=True)
    (1): ReLU()
    (2): Dropout(p=0.1, inplace=False)
    (3): Linear(in_features=20, out_features=40, bias=True)
    (4): ReLU()
    (5): Dropout(p=0.1, inplace=False)
    (6): Linear(in_features=40, out_features=60, bias=True)
    (7): ReLU()
    (8): Dropout(p=0.1, inplace=False)
    (9): Linear(in_features=60, out_features=30, bias=True)
    (10): ReLU()
    (11): Dropout(p=0.1, inplace=False)
    (12): Linear(in_features=30, out_features=2, bias=True)
  )
)",0.3096226453781128,0.8703995793901157,0.3211449086666107,0.8669821240799159
19,telescope_complex.pt,stochastic_rounding,histogram,12,"DenseNeuralNet(
  (net): Sequential(
    (0): Linear(in_features=10, out_features=20, bias=True)
    (1): ReLU()
    (2): Dropout(p=0.1, inplace=False)
    (3): Linear(in_features=20, out_features=40, bias=True)
    (4): ReLU()
    (5): Dropout(p=0.1, inplace=False)
    (6): Linear(in_features=40, out_features=60, bias=True)
    (7): ReLU()
    (8): Dropout(p=0.1, inplace=False)
    (9): Linear(in_features=60, out_features=30, bias=True)
    (10): ReLU()
    (11): Dropout(p=0.1, inplace=False)
    (12): Linear(in_features=30, out_features=2, bias=True)
  )
)",0.3103051483631134,0.8704872064493515,0.3209041357040405,0.8672450052576236
20,telescope_complex.pt,stochastic_rounding,histogram,10,"DenseNeuralNet(
  (net): Sequential(
    (0): Linear(in_features=10, out_features=20, bias=True)
    (1): ReLU()
    (2): Dropout(p=0.1, inplace=False)
    (3): Linear(in_features=20, out_features=40, bias=True)
    (4): ReLU()
    (5): Dropout(p=0.1, inplace=False)
    (6): Linear(in_features=40, out_features=60, bias=True)
    (7): ReLU()
    (8): Dropout(p=0.1, inplace=False)
    (9): Linear(in_features=60, out_features=30, bias=True)
    (10): ReLU()
    (11): Dropout(p=0.1, inplace=False)
    (12): Linear(in_features=30, out_features=2, bias=True)
  )
)",0.3098369240760803,0.8700490711531721,0.3212478458881378,0.8669821240799159
21,telescope_complex.pt,stochastic_rounding,histogram,8,"DenseNeuralNet(
  (net): Sequential(
    (0): Linear(in_features=10, out_features=20, bias=True)
    (1): ReLU()
    (2): Dropout(p=0.1, inplace=False)
    (3): Linear(in_features=20, out_features=40, bias=True)
    (4): ReLU()
    (5): Dropout(p=0.1, inplace=False)
    (6): Linear(in_features=40, out_features=60, bias=True)
    (7): ReLU()
    (8): Dropout(p=0.1, inplace=False)
    (9): Linear(in_features=60, out_features=30, bias=True)
    (10): ReLU()
    (11): Dropout(p=0.1, inplace=False)
    (12): Linear(in_features=30, out_features=2, bias=True)
  )
)",0.3096437156200409,0.870136698212408,0.3203885555267334,0.8672450052576236
22,telescope_complex.pt,stochastic_rounding,histogram,6,"DenseNeuralNet(
  (net): Sequential(
    (0): Linear(in_features=10, out_features=20, bias=True)
    (1): ReLU()
    (2): Dropout(p=0.1, inplace=False)
    (3): Linear(in_features=20, out_features=40, bias=True)
    (4): ReLU()
    (5): Dropout(p=0.1, inplace=False)
    (6): Linear(in_features=40, out_features=60, bias=True)
    (7): ReLU()
    (8): Dropout(p=0.1, inplace=False)
    (9): Linear(in_features=60, out_features=30, bias=True)
    (10): ReLU()
    (11): Dropout(p=0.1, inplace=False)
    (12): Linear(in_features=30, out_features=2, bias=True)
  )
)",0.31311264634132385,0.8681212758499824,0.3244997262954712,0.862776025236593
23,telescope_complex.pt,stochastic_rounding,histogram,4,"DenseNeuralNet(
  (net): Sequential(
    (0): Linear(in_features=10, out_features=20, bias=True)
    (1): ReLU()
    (2): Dropout(p=0.1, inplace=False)
    (3): Linear(in_features=20, out_features=40, bias=True)
    (4): ReLU()
    (5): Dropout(p=0.1, inplace=False)
    (6): Linear(in_features=40, out_features=60, bias=True)
    (7): ReLU()
    (8): Dropout(p=0.1, inplace=False)
    (9): Linear(in_features=60, out_features=30, bias=True)
    (10): ReLU()
    (11): Dropout(p=0.1, inplace=False)
    (12): Linear(in_features=30, out_features=2, bias=True)
  )
)",0.3314974308013916,0.8569926393270242,0.3408452272415161,0.8509463722397477
24,telescope_complex.pt,normal_rounding,uniform_range,16,"DenseNeuralNet(
  (net): Sequential(
    (0): Linear(in_features=10, out_features=20, bias=True)
    (1): ReLU()
    (2): Dropout(p=0.1, inplace=False)
    (3): Linear(in_features=20, out_features=40, bias=True)
    (4): ReLU()
    (5): Dropout(p=0.1, inplace=False)
    (6): Linear(in_features=40, out_features=60, bias=True)
    (7): ReLU()
    (8): Dropout(p=0.1, inplace=False)
    (9): Linear(in_features=60, out_features=30, bias=True)
    (10): ReLU()
    (11): Dropout(p=0.1, inplace=False)
    (12): Linear(in_features=30, out_features=2, bias=True)
  )
)",0.3097595274448395,0.8703995793901157,0.32075661420822144,0.8669821240799159
25,telescope_complex.pt,normal_rounding,uniform_range,12,"DenseNeuralNet(
  (net): Sequential(
    (0): Linear(in_features=10, out_features=20, bias=True)
    (1): ReLU()
    (2): Dropout(p=0.1, inplace=False)
    (3): Linear(in_features=20, out_features=40, bias=True)
    (4): ReLU()
    (5): Dropout(p=0.1, inplace=False)
    (6): Linear(in_features=40, out_features=60, bias=True)
    (7): ReLU()
    (8): Dropout(p=0.1, inplace=False)
    (9): Linear(in_features=60, out_features=30, bias=True)
    (10): ReLU()
    (11): Dropout(p=0.1, inplace=False)
    (12): Linear(in_features=30, out_features=2, bias=True)
  )
)",0.30961084365844727,0.8703995793901157,0.32093414664268494,0.8669821240799159
26,telescope_complex.pt,normal_rounding,uniform_range,10,"DenseNeuralNet(
  (net): Sequential(
    (0): Linear(in_features=10, out_features=20, bias=True)
    (1): ReLU()
    (2): Dropout(p=0.1, inplace=False)
    (3): Linear(in_features=20, out_features=40, bias=True)
    (4): ReLU()
    (5): Dropout(p=0.1, inplace=False)
    (6): Linear(in_features=40, out_features=60, bias=True)
    (7): ReLU()
    (8): Dropout(p=0.1, inplace=False)
    (9): Linear(in_features=60, out_features=30, bias=True)
    (10): ReLU()
    (11): Dropout(p=0.1, inplace=False)
    (12): Linear(in_features=30, out_features=2, bias=True)
  )
)",0.3096367418766022,0.8707500876270592,0.3212566375732422,0.8672450052576236
27,telescope_complex.pt,normal_rounding,uniform_range,8,"DenseNeuralNet(
  (net): Sequential(
    (0): Linear(in_features=10, out_features=20, bias=True)
    (1): ReLU()
    (2): Dropout(p=0.1, inplace=False)
    (3): Linear(in_features=20, out_features=40, bias=True)
    (4): ReLU()
    (5): Dropout(p=0.1, inplace=False)
    (6): Linear(in_features=40, out_features=60, bias=True)
    (7): ReLU()
    (8): Dropout(p=0.1, inplace=False)
    (9): Linear(in_features=60, out_features=30, bias=True)
    (10): ReLU()
    (11): Dropout(p=0.1, inplace=False)
    (12): Linear(in_features=30, out_features=2, bias=True)
  )
)",0.30987459421157837,0.8712758499824745,0.3208432197570801,0.867770767613039
28,telescope_complex.pt,normal_rounding,uniform_range,6,"DenseNeuralNet(
  (net): Sequential(
    (0): Linear(in_features=10, out_features=20, bias=True)
    (1): ReLU()
    (2): Dropout(p=0.1, inplace=False)
    (3): Linear(in_features=20, out_features=40, bias=True)
    (4): ReLU()
    (5): Dropout(p=0.1, inplace=False)
    (6): Linear(in_features=40, out_features=60, bias=True)
    (7): ReLU()
    (8): Dropout(p=0.1, inplace=False)
    (9): Linear(in_features=60, out_features=30, bias=True)
    (10): ReLU()
    (11): Dropout(p=0.1, inplace=False)
    (12): Linear(in_features=30, out_features=2, bias=True)
  )
)",0.30954256653785706,0.8696109358569927,0.3206666111946106,0.8675078864353313
29,telescope_complex.pt,normal_rounding,uniform_range,4,"DenseNeuralNet(
  (net): Sequential(
    (0): Linear(in_features=10, out_features=20, bias=True)
    (1): ReLU()
    (2): Dropout(p=0.1, inplace=False)
    (3): Linear(in_features=20, out_features=40, bias=True)
    (4): ReLU()
    (5): Dropout(p=0.1, inplace=False)
    (6): Linear(in_features=40, out_features=60, bias=True)
    (7): ReLU()
    (8): Dropout(p=0.1, inplace=False)
    (9): Linear(in_features=60, out_features=30, bias=True)
    (10): ReLU()
    (11): Dropout(p=0.1, inplace=False)
    (12): Linear(in_features=30, out_features=2, bias=True)
  )
)",0.31958821415901184,0.8651419558359621,0.3297906219959259,0.8638275499474237
30,telescope_complex.pt,normal_rounding,uniform_range_IQR,16,"DenseNeuralNet(
  (net): Sequential(
    (0): Linear(in_features=10, out_features=20, bias=True)
    (1): ReLU()
    (2): Dropout(p=0.1, inplace=False)
    (3): Linear(in_features=20, out_features=40, bias=True)
    (4): ReLU()
    (5): Dropout(p=0.1, inplace=False)
    (6): Linear(in_features=40, out_features=60, bias=True)
    (7): ReLU()
    (8): Dropout(p=0.1, inplace=False)
    (9): Linear(in_features=60, out_features=30, bias=True)
    (10): ReLU()
    (11): Dropout(p=0.1, inplace=False)
    (12): Linear(in_features=30, out_features=2, bias=True)
  )
)",0.32255277037620544,0.8661934805467929,0.33375436067581177,0.8583070452155626
31,telescope_complex.pt,normal_rounding,uniform_range_IQR,12,"DenseNeuralNet(
  (net): Sequential(
    (0): Linear(in_features=10, out_features=20, bias=True)
    (1): ReLU()
    (2): Dropout(p=0.1, inplace=False)
    (3): Linear(in_features=20, out_features=40, bias=True)
    (4): ReLU()
    (5): Dropout(p=0.1, inplace=False)
    (6): Linear(in_features=40, out_features=60, bias=True)
    (7): ReLU()
    (8): Dropout(p=0.1, inplace=False)
    (9): Linear(in_features=60, out_features=30, bias=True)
    (10): ReLU()
    (11): Dropout(p=0.1, inplace=False)
    (12): Linear(in_features=30, out_features=2, bias=True)
  )
)",0.3225661814212799,0.8661934805467929,0.3340228497982025,0.8583070452155626
32,telescope_complex.pt,normal_rounding,uniform_range_IQR,10,"DenseNeuralNet(
  (net): Sequential(
    (0): Linear(in_features=10, out_features=20, bias=True)
    (1): ReLU()
    (2): Dropout(p=0.1, inplace=False)
    (3): Linear(in_features=20, out_features=40, bias=True)
    (4): ReLU()
    (5): Dropout(p=0.1, inplace=False)
    (6): Linear(in_features=40, out_features=60, bias=True)
    (7): ReLU()
    (8): Dropout(p=0.1, inplace=False)
    (9): Linear(in_features=60, out_features=30, bias=True)
    (10): ReLU()
    (11): Dropout(p=0.1, inplace=False)
    (12): Linear(in_features=30, out_features=2, bias=True)
  )
)",0.3222484588623047,0.8661934805467929,0.3338506817817688,0.8585699263932702
33,telescope_complex.pt,normal_rounding,uniform_range_IQR,8,"DenseNeuralNet(
  (net): Sequential(
    (0): Linear(in_features=10, out_features=20, bias=True)
    (1): ReLU()
    (2): Dropout(p=0.1, inplace=False)
    (3): Linear(in_features=20, out_features=40, bias=True)
    (4): ReLU()
    (5): Dropout(p=0.1, inplace=False)
    (6): Linear(in_features=40, out_features=60, bias=True)
    (7): ReLU()
    (8): Dropout(p=0.1, inplace=False)
    (9): Linear(in_features=60, out_features=30, bias=True)
    (10): ReLU()
    (11): Dropout(p=0.1, inplace=False)
    (12): Linear(in_features=30, out_features=2, bias=True)
  )
)",0.32230404019355774,0.8658429723098493,0.3340093493461609,0.8583070452155626
34,telescope_complex.pt,normal_rounding,uniform_range_IQR,6,"DenseNeuralNet(
  (net): Sequential(
    (0): Linear(in_features=10, out_features=20, bias=True)
    (1): ReLU()
    (2): Dropout(p=0.1, inplace=False)
    (3): Linear(in_features=20, out_features=40, bias=True)
    (4): ReLU()
    (5): Dropout(p=0.1, inplace=False)
    (6): Linear(in_features=40, out_features=60, bias=True)
    (7): ReLU()
    (8): Dropout(p=0.1, inplace=False)
    (9): Linear(in_features=60, out_features=30, bias=True)
    (10): ReLU()
    (11): Dropout(p=0.1, inplace=False)
    (12): Linear(in_features=30, out_features=2, bias=True)
  )
)",0.32348358631134033,0.8650543287767263,0.3343704342842102,0.8583070452155626
35,telescope_complex.pt,normal_rounding,uniform_range_IQR,4,"DenseNeuralNet(
  (net): Sequential(
    (0): Linear(in_features=10, out_features=20, bias=True)
    (1): ReLU()
    (2): Dropout(p=0.1, inplace=False)
    (3): Linear(in_features=20, out_features=40, bias=True)
    (4): ReLU()
    (5): Dropout(p=0.1, inplace=False)
    (6): Linear(in_features=40, out_features=60, bias=True)
    (7): ReLU()
    (8): Dropout(p=0.1, inplace=False)
    (9): Linear(in_features=60, out_features=30, bias=True)
    (10): ReLU()
    (11): Dropout(p=0.1, inplace=False)
    (12): Linear(in_features=30, out_features=2, bias=True)
  )
)",0.3211064040660858,0.8654924640729057,0.3309051990509033,0.8630389064143007
36,telescope_complex.pt,normal_rounding,prior_normal,16,"DenseNeuralNet(
  (net): Sequential(
    (0): Linear(in_features=10, out_features=20, bias=True)
    (1): ReLU()
    (2): Dropout(p=0.1, inplace=False)
    (3): Linear(in_features=20, out_features=40, bias=True)
    (4): ReLU()
    (5): Dropout(p=0.1, inplace=False)
    (6): Linear(in_features=40, out_features=60, bias=True)
    (7): ReLU()
    (8): Dropout(p=0.1, inplace=False)
    (9): Linear(in_features=60, out_features=30, bias=True)
    (10): ReLU()
    (11): Dropout(p=0.1, inplace=False)
    (12): Linear(in_features=30, out_features=2, bias=True)
  )
)",0.3097570240497589,0.8703995793901157,0.3208153247833252,0.8669821240799159
37,telescope_complex.pt,normal_rounding,prior_normal,12,"DenseNeuralNet(
  (net): Sequential(
    (0): Linear(in_features=10, out_features=20, bias=True)
    (1): ReLU()
    (2): Dropout(p=0.1, inplace=False)
    (3): Linear(in_features=20, out_features=40, bias=True)
    (4): ReLU()
    (5): Dropout(p=0.1, inplace=False)
    (6): Linear(in_features=40, out_features=60, bias=True)
    (7): ReLU()
    (8): Dropout(p=0.1, inplace=False)
    (9): Linear(in_features=60, out_features=30, bias=True)
    (10): ReLU()
    (11): Dropout(p=0.1, inplace=False)
    (12): Linear(in_features=30, out_features=2, bias=True)
  )
)",0.30958807468414307,0.8703995793901157,0.320638507604599,0.8675078864353313
38,telescope_complex.pt,normal_rounding,prior_normal,10,"DenseNeuralNet(
  (net): Sequential(
    (0): Linear(in_features=10, out_features=20, bias=True)
    (1): ReLU()
    (2): Dropout(p=0.1, inplace=False)
    (3): Linear(in_features=20, out_features=40, bias=True)
    (4): ReLU()
    (5): Dropout(p=0.1, inplace=False)
    (6): Linear(in_features=40, out_features=60, bias=True)
    (7): ReLU()
    (8): Dropout(p=0.1, inplace=False)
    (9): Linear(in_features=60, out_features=30, bias=True)
    (10): ReLU()
    (11): Dropout(p=0.1, inplace=False)
    (12): Linear(in_features=30, out_features=2, bias=True)
  )
)",0.3115493953227997,0.8694356817385208,0.32390207052230835,0.8661934805467929
39,telescope_complex.pt,normal_rounding,prior_normal,8,"DenseNeuralNet(
  (net): Sequential(
    (0): Linear(in_features=10, out_features=20, bias=True)
    (1): ReLU()
    (2): Dropout(p=0.1, inplace=False)
    (3): Linear(in_features=20, out_features=40, bias=True)
    (4): ReLU()
    (5): Dropout(p=0.1, inplace=False)
    (6): Linear(in_features=40, out_features=60, bias=True)
    (7): ReLU()
    (8): Dropout(p=0.1, inplace=False)
    (9): Linear(in_features=60, out_features=30, bias=True)
    (10): ReLU()
    (11): Dropout(p=0.1, inplace=False)
    (12): Linear(in_features=30, out_features=2, bias=True)
  )
)",0.31541410088539124,0.8680336487907466,0.3286392092704773,0.8625131440588854
40,telescope_complex.pt,normal_rounding,prior_normal,6,"DenseNeuralNet(
  (net): Sequential(
    (0): Linear(in_features=10, out_features=20, bias=True)
    (1): ReLU()
    (2): Dropout(p=0.1, inplace=False)
    (3): Linear(in_features=20, out_features=40, bias=True)
    (4): ReLU()
    (5): Dropout(p=0.1, inplace=False)
    (6): Linear(in_features=40, out_features=60, bias=True)
    (7): ReLU()
    (8): Dropout(p=0.1, inplace=False)
    (9): Linear(in_features=60, out_features=30, bias=True)
    (10): ReLU()
    (11): Dropout(p=0.1, inplace=False)
    (12): Linear(in_features=30, out_features=2, bias=True)
  )
)",0.32055172324180603,0.864440939362075,0.3350174129009247,0.8590956887486856
41,telescope_complex.pt,normal_rounding,prior_normal,4,"DenseNeuralNet(
  (net): Sequential(
    (0): Linear(in_features=10, out_features=20, bias=True)
    (1): ReLU()
    (2): Dropout(p=0.1, inplace=False)
    (3): Linear(in_features=20, out_features=40, bias=True)
    (4): ReLU()
    (5): Dropout(p=0.1, inplace=False)
    (6): Linear(in_features=40, out_features=60, bias=True)
    (7): ReLU()
    (8): Dropout(p=0.1, inplace=False)
    (9): Linear(in_features=60, out_features=30, bias=True)
    (10): ReLU()
    (11): Dropout(p=0.1, inplace=False)
    (12): Linear(in_features=30, out_features=2, bias=True)
  )
)",0.34237000346183777,0.8541009463722398,0.3583930432796478,0.8477917981072555
42,telescope_complex.pt,normal_rounding,histogram,16,"DenseNeuralNet(
  (net): Sequential(
    (0): Linear(in_features=10, out_features=20, bias=True)
    (1): ReLU()
    (2): Dropout(p=0.1, inplace=False)
    (3): Linear(in_features=20, out_features=40, bias=True)
    (4): ReLU()
    (5): Dropout(p=0.1, inplace=False)
    (6): Linear(in_features=40, out_features=60, bias=True)
    (7): ReLU()
    (8): Dropout(p=0.1, inplace=False)
    (9): Linear(in_features=60, out_features=30, bias=True)
    (10): ReLU()
    (11): Dropout(p=0.1, inplace=False)
    (12): Linear(in_features=30, out_features=2, bias=True)
  )
)",0.3096449375152588,0.8703995793901157,0.3212273120880127,0.8669821240799159
43,telescope_complex.pt,normal_rounding,histogram,12,"DenseNeuralNet(
  (net): Sequential(
    (0): Linear(in_features=10, out_features=20, bias=True)
    (1): ReLU()
    (2): Dropout(p=0.1, inplace=False)
    (3): Linear(in_features=20, out_features=40, bias=True)
    (4): ReLU()
    (5): Dropout(p=0.1, inplace=False)
    (6): Linear(in_features=40, out_features=60, bias=True)
    (7): ReLU()
    (8): Dropout(p=0.1, inplace=False)
    (9): Linear(in_features=60, out_features=30, bias=True)
    (10): ReLU()
    (11): Dropout(p=0.1, inplace=False)
    (12): Linear(in_features=30, out_features=2, bias=True)
  )
)",0.31022849678993225,0.8703995793901157,0.32106882333755493,0.8669821240799159
44,telescope_complex.pt,normal_rounding,histogram,10,"DenseNeuralNet(
  (net): Sequential(
    (0): Linear(in_features=10, out_features=20, bias=True)
    (1): ReLU()
    (2): Dropout(p=0.1, inplace=False)
    (3): Linear(in_features=20, out_features=40, bias=True)
    (4): ReLU()
    (5): Dropout(p=0.1, inplace=False)
    (6): Linear(in_features=40, out_features=60, bias=True)
    (7): ReLU()
    (8): Dropout(p=0.1, inplace=False)
    (9): Linear(in_features=60, out_features=30, bias=True)
    (10): ReLU()
    (11): Dropout(p=0.1, inplace=False)
    (12): Linear(in_features=30, out_features=2, bias=True)
  )
)",0.30971449613571167,0.8706624605678234,0.32073819637298584,0.8675078864353313
45,telescope_complex.pt,normal_rounding,histogram,8,"DenseNeuralNet(
  (net): Sequential(
    (0): Linear(in_features=10, out_features=20, bias=True)
    (1): ReLU()
    (2): Dropout(p=0.1, inplace=False)
    (3): Linear(in_features=20, out_features=40, bias=True)
    (4): ReLU()
    (5): Dropout(p=0.1, inplace=False)
    (6): Linear(in_features=40, out_features=60, bias=True)
    (7): ReLU()
    (8): Dropout(p=0.1, inplace=False)
    (9): Linear(in_features=60, out_features=30, bias=True)
    (10): ReLU()
    (11): Dropout(p=0.1, inplace=False)
    (12): Linear(in_features=30, out_features=2, bias=True)
  )
)",0.3094538152217865,0.8703119523308798,0.3210844397544861,0.8675078864353313
46,telescope_complex.pt,normal_rounding,histogram,6,"DenseNeuralNet(
  (net): Sequential(
    (0): Linear(in_features=10, out_features=20, bias=True)
    (1): ReLU()
    (2): Dropout(p=0.1, inplace=False)
    (3): Linear(in_features=20, out_features=40, bias=True)
    (4): ReLU()
    (5): Dropout(p=0.1, inplace=False)
    (6): Linear(in_features=40, out_features=60, bias=True)
    (7): ReLU()
    (8): Dropout(p=0.1, inplace=False)
    (9): Linear(in_features=60, out_features=30, bias=True)
    (10): ReLU()
    (11): Dropout(p=0.1, inplace=False)
    (12): Linear(in_features=30, out_features=2, bias=True)
  )
)",0.3108280599117279,0.8681212758499824,0.32281947135925293,0.8659305993690851
47,telescope_complex.pt,normal_rounding,histogram,4,"DenseNeuralNet(
  (net): Sequential(
    (0): Linear(in_features=10, out_features=20, bias=True)
    (1): ReLU()
    (2): Dropout(p=0.1, inplace=False)
    (3): Linear(in_features=20, out_features=40, bias=True)
    (4): ReLU()
    (5): Dropout(p=0.1, inplace=False)
    (6): Linear(in_features=40, out_features=60, bias=True)
    (7): ReLU()
    (8): Dropout(p=0.1, inplace=False)
    (9): Linear(in_features=60, out_features=30, bias=True)
    (10): ReLU()
    (11): Dropout(p=0.1, inplace=False)
    (12): Linear(in_features=30, out_features=2, bias=True)
  )
)",0.318032443523407,0.8651419558359621,0.33020853996276855,0.8638275499474237
48,telescope_complex.pt,mid-rise,,16,"DenseNeuralNet(
  (net): Sequential(
    (0): Linear(in_features=10, out_features=20, bias=True)
    (1): ReLU()
    (2): Dropout(p=0.1, inplace=False)
    (3): Linear(in_features=20, out_features=40, bias=True)
    (4): ReLU()
    (5): Dropout(p=0.1, inplace=False)
    (6): Linear(in_features=40, out_features=60, bias=True)
    (7): ReLU()
    (8): Dropout(p=0.1, inplace=False)
    (9): Linear(in_features=60, out_features=30, bias=True)
    (10): ReLU()
    (11): Dropout(p=0.1, inplace=False)
    (12): Linear(in_features=30, out_features=2, bias=True)
  )
)",0.30997321009635925,0.8703995793901157,0.32098835706710815,0.8669821240799159
49,telescope_complex.pt,mid-rise,,12,"DenseNeuralNet(
  (net): Sequential(
    (0): Linear(in_features=10, out_features=20, bias=True)
    (1): ReLU()
    (2): Dropout(p=0.1, inplace=False)
    (3): Linear(in_features=20, out_features=40, bias=True)
    (4): ReLU()
    (5): Dropout(p=0.1, inplace=False)
    (6): Linear(in_features=40, out_features=60, bias=True)
    (7): ReLU()
    (8): Dropout(p=0.1, inplace=False)
    (9): Linear(in_features=60, out_features=30, bias=True)
    (10): ReLU()
    (11): Dropout(p=0.1, inplace=False)
    (12): Linear(in_features=30, out_features=2, bias=True)
  )
)",0.3098074793815613,0.8703119523308798,0.3209456205368042,0.8669821240799159
50,telescope_complex.pt,mid-rise,,10,"DenseNeuralNet(
  (net): Sequential(
    (0): Linear(in_features=10, out_features=20, bias=True)
    (1): ReLU()
    (2): Dropout(p=0.1, inplace=False)
    (3): Linear(in_features=20, out_features=40, bias=True)
    (4): ReLU()
    (5): Dropout(p=0.1, inplace=False)
    (6): Linear(in_features=40, out_features=60, bias=True)
    (7): ReLU()
    (8): Dropout(p=0.1, inplace=False)
    (9): Linear(in_features=60, out_features=30, bias=True)
    (10): ReLU()
    (11): Dropout(p=0.1, inplace=False)
    (12): Linear(in_features=30, out_features=2, bias=True)
  )
)",0.3096882104873657,0.8705748335085874,0.3206886649131775,0.8675078864353313
51,telescope_complex.pt,mid-rise,,8,"DenseNeuralNet(
  (net): Sequential(
    (0): Linear(in_features=10, out_features=20, bias=True)
    (1): ReLU()
    (2): Dropout(p=0.1, inplace=False)
    (3): Linear(in_features=20, out_features=40, bias=True)
    (4): ReLU()
    (5): Dropout(p=0.1, inplace=False)
    (6): Linear(in_features=40, out_features=60, bias=True)
    (7): ReLU()
    (8): Dropout(p=0.1, inplace=False)
    (9): Linear(in_features=60, out_features=30, bias=True)
    (10): ReLU()
    (11): Dropout(p=0.1, inplace=False)
    (12): Linear(in_features=30, out_features=2, bias=True)
  )
)",0.30943354964256287,0.8708377146862951,0.3208058774471283,0.8680336487907466
52,telescope_complex.pt,mid-rise,,6,"DenseNeuralNet(
  (net): Sequential(
    (0): Linear(in_features=10, out_features=20, bias=True)
    (1): ReLU()
    (2): Dropout(p=0.1, inplace=False)
    (3): Linear(in_features=20, out_features=40, bias=True)
    (4): ReLU()
    (5): Dropout(p=0.1, inplace=False)
    (6): Linear(in_features=40, out_features=60, bias=True)
    (7): ReLU()
    (8): Dropout(p=0.1, inplace=False)
    (9): Linear(in_features=60, out_features=30, bias=True)
    (10): ReLU()
    (11): Dropout(p=0.1, inplace=False)
    (12): Linear(in_features=30, out_features=2, bias=True)
  )
)",0.30915847420692444,0.8699614440939362,0.3194900155067444,0.8672450052576236
53,telescope_complex.pt,mid-rise,,4,"DenseNeuralNet(
  (net): Sequential(
    (0): Linear(in_features=10, out_features=20, bias=True)
    (1): ReLU()
    (2): Dropout(p=0.1, inplace=False)
    (3): Linear(in_features=20, out_features=40, bias=True)
    (4): ReLU()
    (5): Dropout(p=0.1, inplace=False)
    (6): Linear(in_features=40, out_features=60, bias=True)
    (7): ReLU()
    (8): Dropout(p=0.1, inplace=False)
    (9): Linear(in_features=60, out_features=30, bias=True)
    (10): ReLU()
    (11): Dropout(p=0.1, inplace=False)
    (12): Linear(in_features=30, out_features=2, bias=True)
  )
)",0.31646400690078735,0.8655800911321416,0.3257565200328827,0.8654048370136698
54,telescope_complex.pt,mid-rise_iqr,,16,"DenseNeuralNet(
  (net): Sequential(
    (0): Linear(in_features=10, out_features=20, bias=True)
    (1): ReLU()
    (2): Dropout(p=0.1, inplace=False)
    (3): Linear(in_features=20, out_features=40, bias=True)
    (4): ReLU()
    (5): Dropout(p=0.1, inplace=False)
    (6): Linear(in_features=40, out_features=60, bias=True)
    (7): ReLU()
    (8): Dropout(p=0.1, inplace=False)
    (9): Linear(in_features=60, out_features=30, bias=True)
    (10): ReLU()
    (11): Dropout(p=0.1, inplace=False)
    (12): Linear(in_features=30, out_features=2, bias=True)
  )
)",,0.6536978618997547,,0.6398527865404837
55,telescope_complex.pt,mid-rise_iqr,,12,"DenseNeuralNet(
  (net): Sequential(
    (0): Linear(in_features=10, out_features=20, bias=True)
    (1): ReLU()
    (2): Dropout(p=0.1, inplace=False)
    (3): Linear(in_features=20, out_features=40, bias=True)
    (4): ReLU()
    (5): Dropout(p=0.1, inplace=False)
    (6): Linear(in_features=40, out_features=60, bias=True)
    (7): ReLU()
    (8): Dropout(p=0.1, inplace=False)
    (9): Linear(in_features=60, out_features=30, bias=True)
    (10): ReLU()
    (11): Dropout(p=0.1, inplace=False)
    (12): Linear(in_features=30, out_features=2, bias=True)
  )
)",,0.6536978618997547,,0.6398527865404837
56,telescope_complex.pt,mid-rise_iqr,,10,"DenseNeuralNet(
  (net): Sequential(
    (0): Linear(in_features=10, out_features=20, bias=True)
    (1): ReLU()
    (2): Dropout(p=0.1, inplace=False)
    (3): Linear(in_features=20, out_features=40, bias=True)
    (4): ReLU()
    (5): Dropout(p=0.1, inplace=False)
    (6): Linear(in_features=40, out_features=60, bias=True)
    (7): ReLU()
    (8): Dropout(p=0.1, inplace=False)
    (9): Linear(in_features=60, out_features=30, bias=True)
    (10): ReLU()
    (11): Dropout(p=0.1, inplace=False)
    (12): Linear(in_features=30, out_features=2, bias=True)
  )
)",,0.6536978618997547,,0.6398527865404837
57,telescope_complex.pt,mid-rise_iqr,,8,"DenseNeuralNet(
  (net): Sequential(
    (0): Linear(in_features=10, out_features=20, bias=True)
    (1): ReLU()
    (2): Dropout(p=0.1, inplace=False)
    (3): Linear(in_features=20, out_features=40, bias=True)
    (4): ReLU()
    (5): Dropout(p=0.1, inplace=False)
    (6): Linear(in_features=40, out_features=60, bias=True)
    (7): ReLU()
    (8): Dropout(p=0.1, inplace=False)
    (9): Linear(in_features=60, out_features=30, bias=True)
    (10): ReLU()
    (11): Dropout(p=0.1, inplace=False)
    (12): Linear(in_features=30, out_features=2, bias=True)
  )
)",,0.6536978618997547,,0.6398527865404837
58,telescope_complex.pt,mid-rise_iqr,,6,"DenseNeuralNet(
  (net): Sequential(
    (0): Linear(in_features=10, out_features=20, bias=True)
    (1): ReLU()
    (2): Dropout(p=0.1, inplace=False)
    (3): Linear(in_features=20, out_features=40, bias=True)
    (4): ReLU()
    (5): Dropout(p=0.1, inplace=False)
    (6): Linear(in_features=40, out_features=60, bias=True)
    (7): ReLU()
    (8): Dropout(p=0.1, inplace=False)
    (9): Linear(in_features=60, out_features=30, bias=True)
    (10): ReLU()
    (11): Dropout(p=0.1, inplace=False)
    (12): Linear(in_features=30, out_features=2, bias=True)
  )
)",,0.6536978618997547,,0.6398527865404837
59,telescope_complex.pt,mid-rise_iqr,,4,"DenseNeuralNet(
  (net): Sequential(
    (0): Linear(in_features=10, out_features=20, bias=True)
    (1): ReLU()
    (2): Dropout(p=0.1, inplace=False)
    (3): Linear(in_features=20, out_features=40, bias=True)
    (4): ReLU()
    (5): Dropout(p=0.1, inplace=False)
    (6): Linear(in_features=40, out_features=60, bias=True)
    (7): ReLU()
    (8): Dropout(p=0.1, inplace=False)
    (9): Linear(in_features=60, out_features=30, bias=True)
    (10): ReLU()
    (11): Dropout(p=0.1, inplace=False)
    (12): Linear(in_features=30, out_features=2, bias=True)
  )
)",,0.6536978618997547,,0.6398527865404837
